checkpoint_modelv2.pth (torch, 88573 bytes, 76 tensors)

layer1.0.weight f4 [10, 1, 3, 3]
000000 f4 f4 a4 3e 30 4f 5a 3e 51 a4 f2 bd 1c e0 e9 3e
       0.32218134 0.2131927 -0.11847747 0.45678794
000010 6d a7 94 bd 03 75 1c 3d c4 73 ab bd 17 74 36 3e
       -0.072584964 0.03819753 -0.0837169 0.17817722
000020 b9 e7 62 3e 9b 1b 99 be 70 15 42 3e 4e ea 14 3d
       0.22158708 -0.29903874 0.1895349 0.036356263
000030 0e 0b 89 3e 33 dc 7e 3d 9d 37 8b 3e 85 fb b8 3c
       0.26766247 0.062221717 0.27190867 0.022580871
000040 20 6d 89 3e 14 08 11 3d da 50 9a be 7b 41 3a 3e
       0.26841068 0.035408095 -0.3013981 0.18189041
000050 6c 0c 86 3c c6 84 61 be f5 f3 b1 bd 41 71 4c 3e
       0.016363345 -0.22023305 -0.08689109 0.19965078
000060 c4 4e ab bd 7a 37 52 be b0 1e 05 be 25 f8 1b be
       -0.08364633 -0.20528975 -0.12999988 -0.15231378
000070 1f eb 11 3d 0c 76 cf be d3 3c 98 3e 28 7b 7b be
       0.03562462 -0.4051975 0.29733905 -0.24558699
000080 1d 05 75 3e 20 0e 98 3d 8f 1d 87 bd 1e c1 93 3e
       0.23927732 0.07424569 -0.06597435 0.28858274
000090 1f 89 4b 3d 17 90 80 3e 4d fd 5b bb b8 ca bd bd
       0.049691316 0.25109932 -0.0033567727 -0.09267181
0000a0 5d 72 72 3d 1a 03 fc bc ea 32 43 3e 3f 3c b0 3e
       0.059191097 -0.030763198 0.19062391 0.34420964
0000b0 7c 62 6c 3e 7e da 1a bd b7 d9 1f 3e e2 02 5f bd
       0.23084444 -0.037806027 0.15610395 -0.05444611
0000c0 65 04 46 3e 51 7a 8b be 16 ff 9f be 25 e6 8c be
       0.19337614 -0.27241758 -0.31249303 -0.27519336
0000d0 5d a3 5e be 70 c7 a7 3e 18 b9 af 3d 77 9c 0b 3e
       -0.21742006 0.32769346 0.08580226 0.13633905
0000e0 5c d7 41 3e 6a 84 c7 3c ba 73 92 3e 5c 6a 38 be
       0.1892981 0.024355132 0.28603917 -0.18009323
0000f0 6b 42 63 bd 0c 3a 8f be f5 0d 09 3d 8c 35 0c be
       -0.055483263 -0.27973974 0.033460576 -0.13692302
000100 66 d5 e5 3d bd 59 24 bd 1f 25 86 3e 26 a3 23 be
       0.11222343 -0.040124644 0.26200196 -0.15980205
000110 56 50 9a be 94 f3 3f be c0 4a 97 3e 18 67 12 3e
       -0.30139416 -0.18745261 0.29549217 0.1429714
000120 a7 84 8f 3e 0c 9f 8f be 60 ac d4 be 48 ff 27 be
       0.28030893 -0.2805103 -0.41537762 -0.16405976
000130 64 8e 6f be 7f b2 d1 bb 6f c9 69 3e b5 b9 7f 3e
       -0.23394161 -0.006399452 0.22830747 0.24973185
000140 db 4f 9a be 4e 90 55 be c6 a8 41 3e 76 82 d3 bc
       -0.3013905 -0.20855829 0.18912038 -0.025819045
000150 71 f1 2d 3e b7 ac 2e bd a9 1d a0 3e f9 e2 88 be
       0.16986634 -0.042645182 0.3127263 -0.26735666
000160 64 6d 48 be e4 5d be 3d
       -0.19572979 0.09295252

layer1.0.bias f4 [10]
000000 16 80 e4 3d a6 86 d9 bd e0 7f 27 3e f6 ab a5 3d
       0.11157243 -0.10621385 0.16357374 0.080894396
000010 5b d9 a0 be 9b a9 51 be 4e d2 b3 3e 29 c6 17 be
       -0.3141583 -0.20474856 0.35121387 -0.14821686
000020 b2 cf 19 be db 7b 40 be
       -0.15020636 -0.18797247

layer1.1.weight f4 [10]
000000 08 34 5a 3f 73 a6 64 3f 57 36 ac 3f 41 51 8e 3f
       0.85235643 0.8931648 1.3454083 1.1118547
000010 f6 30 5a 3f 94 4b a1 3f a6 86 73 3f 4e b6 81 3f
       0.8523096 1.260119 0.9512733 1.013376
000020 0f 8b 89 3f c9 20 77 3f
       1.0745562 0.965344

layer1.1.bias f4 [10]
000000 dd cd 26 3d 1a 3d a1 bc 7e 01 25 3e 16 1e 1c bc
       0.04072367 -0.019682456 0.1611385 -0.009528657
000010 0e 7b dd bd c3 5a 7f 3d c8 8d 47 3e b4 ad f7 bc
       -0.108144864 0.062342416 0.19487679 -0.030234195
000020 91 73 a1 3d 69 ca b6 bd
       0.07883371 -0.089253254

layer1.1.running_mean f4 [10]
000000 fc fe 85 3e 0f af a5 3b ea 7f a9 3d ce 56 b7 3d
       0.261711 0.005056269 0.08276351 0.089521036
000010 ae f3 3b be b2 f4 88 be 6c 67 c2 3e 82 98 19 be
       -0.18354675 -0.26749188 0.3796953 -0.14999583
000020 e4 b2 71 be 29 7a 3d be
       -0.23603398 -0.18503632

layer1.1.running_var f4 [10]
000000 3e 80 b8 3d 4f f7 7f 3d 42 3c 06 3d 8c 74 5c 3c
       0.09008835 0.06249171 0.03277231 0.013455521
000010 a9 99 8a 3d b9 0c d8 3c dd 30 69 3c 6b 6f 92 3b
       0.067675896 0.026373254 0.014232841 0.0044688485
000020 83 72 53 3d 2a 6d 2a 3c
       0.05162288 0.010402003

layer1.3.weight f4 [10, 10, 3, 3]
000000 e8 0f c8 bd 6e 23 0f 3d 18 fb 3e bd 6f 42 32 be
       -0.09768659 0.034945898 -0.04662618 -0.17408155
000010 1e 8d 8e 3c 79 39 af bd 08 e3 2b be 87 26 86 bd
       0.017401274 -0.08555884 -0.16785824 -0.06550317
000020 6c 65 8e bd 7f 81 a5 bd f0 08 73 3d 94 74 de 3c
       -0.069529384 -0.0808134 0.059334695 0.027155198
000030 4a 77 3b bb f2 02 4e be 91 d5 f2 bd 65 41 71 bd
       -0.0028605037 -0.20118311 -0.11857141 -0.058900256
000040 13 ba 4f bd a8 f5 f3 bd 98 91 1d bc 76 a2 5a bc
       -0.050714564 -0.119120896 -0.009617232 -0.013344398
000050 68 a2 02 3d 63 fc 05 be 59 42 7b bd 98 d0 f7 bd
       0.031893164 -0.13084559 -0.06134257 -0.12100333
000060 45 fa 49 be 81 12 ec bd de 9c 9d bc 99 04 38 be
       -0.19724376 -0.11526967 -0.01923984 -0.17970504
000070 36 ac 0c 3d 2d 2d 22 be 25 09 15 3e fc 90 77 3d
       0.03434392 -0.15837546 0.1455427 0.060441002
000080 23 71 8e be 7b 00 18 3e ce 5b af 3d 90 24 8a bd
       -0.2782069 0.14843933 0.08562432 -0.06745255
000090 53 44 f8 bd 43 11 21 be 50 24 c8 bc 88 14 98 bd
       -0.12122407 -0.15729241 -0.024431378 -0.07425791
0000a0 9a 4c b5 ba f3 d0 eb bd e9 cd ec 3c 0b 95 16 be
       -0.0013832033 -0.11514463 0.02890678 -0.14705293
0000b0 be 61 6c bc 89 6d 48 bd c2 c2 da bd a3 2d 27 bd
       -0.0144276 -0.048932586 -0.10681678 -0.040815007
0000c0 fa 5c b9 bc 88 78 df 3d c0 12 eb bc 80 f8 a9 bd
       -0.022627342 0.109116614 -0.028695464 -0.08299351
0000d0 36 55 3a 3d 96 59 dd bc ea 93 a7 3d 2a 4b 97 bd
       0.04549142 -0.027020257 0.08182509 -0.07387383
0000e0 2a eb 98 3d fe 5e 58 3d 53 6d 2e 3d 24 2d 3e 3c
       0.07466729 0.052824967 0.04258473 0.011607442
0000f0 ba e7 c6 bc 66 12 20 bc ad f5 78 bd 9e 4e b1 bc
       -0.024280418 -0.0097700115 -0.06078117 -0.021643933
000100 2c c6 c0 3d 1e cc a3 3d 9a fe ad bd 33 62 01 3e
       0.09412798 0.07997917 -0.08495827 0.12635116
000110 f4 8a 98 3d cb c4 34 bd 48 e7 cc bc bd 44 9a 3b
       0.07448378 -0.04413299 -0.025012627 0.0047079013
000120 55 88 47 bd 5e 5e cd bd 88 5e 2e be 35 d1 2f bd
       -0.048714 -0.10027765 -0.17028248 -0.042924125
000130 9b 4d 30 be 9e c4 22 3d 81 4e 2b 3e 8f bf ca bd
       -0.17217104 0.03973829 0.16729166 -0.09899818
000140 e6 17 15 3d 14 5d 12 3e a0 68 f3 bc 2a c8 6f bc
       0.036399744 0.14293319 -0.029712975 -0.014635125
000150 40 fb 3c 3d c0 d0 c7 bd d4 4d 8b bd e0 94 66 3d
       0.04613805 -0.09756613 -0.06801954 0.056294322
000160 43 63 78 3d e0 40 01 3e bb 8c b6 bd 48 27 1d bc
       0.06064154 0.12622404 -0.08913561 -0.009591885
000170 47 d0 01 3e 14 71 42 3d b9 1d bb bd 1b 7a c7 bc
       0.12677108 0.04747112 -0.091365285 -0.024350217
000180 6b 1b 26 3d 5c 7e 78 bd b7 58 3d bd 60 e1 b1 3a
       0.04055349 -0.06066738 -0.046227183 0.0013571195
000190 c8 35 48 bd e9 9e c9 3b 57 94 46 3d f2 36 98 3b
       -0.048879415 0.006152977 0.04848131 0.004645222
0001a0 1b 4c 76 bc 1f 2b 31 bd dd 6c d9 bd e9 e4 43 be
       -0.015032793 -0.043254014 -0.10616467 -0.19130291
0001b0 aa 9b be 3d 8e 0a 23 3e c5 7f 43 3e c8 4a 23 3e
       0.09307034 0.15921995 0.19091709 0.15946496
0001c0 19 ce 73 bc 9b f1 04 3e 3e 6e 03 bd 66 92 10 3e
       -0.0148806805 0.1298279 -0.032087557 0.14118347
0001d0 dd 75 54 bd 40 82 1c bd 45 cc 6b bd 36 24 47 bd
       -0.051870216 -0.038210154 -0.057567853 -0.048618518
0001e0 97 56 bc bc b7 2a f1 3d 80 6c 1d bd 38 c0 3c bd
       -0.022990508 0.11775725 -0.03843355 -0.04608175
0001f0 92 9d 4e be e3 0c 28 bd 48 83 11 3d 03 d4 cb 3d
       -0.20177296 -0.041027915 0.03552559 0.099525474
000200 d7 42 2d bb 6b 3d 14 be 5b fb 1d be f7 db 54 3c
       -0.0026437545 -0.14476554 -0.15427916 0.012991897
000210 45 cc c0 3d 38 83 b6 3d 0a fe 84 3c 9c c0 8c bd
       0.09413961 0.08911747 0.016234417 -0.06872675
000220 f3 df 00 be da be 21 bd b0 c1 1e be 39 82 5a be
       -0.1258543 -0.03948865 -0.15503573 -0.21338739
000230 01 be c5 3c b2 49 24 bd b0 9a dd 3d a5 b7 f4 3d
       0.024138452 -0.040109344 0.1082052 0.1194909
000240 94 14 87 bd 43 fb 62 bd 83 fc 11 bc 6e 7e 0a bb
       -0.06595722 -0.055415403 -0.008910301 -0.0021132487
000250 90 cf bc 3c a9 cf 0b 3e c9 16 60 bd dc 70 e6 bd
       0.023048192 0.13653435 -0.05470923 -0.11251995
000260 7f 0f 28 bd 3b 7c 94 3c 11 c8 a4 bc 31 b3 39 be
       -0.041030403 0.018125644 -0.02011493 -0.18134762
000270 cd 49 19 3e ab 52 14 bd 9d 2b ee bc f9 a9 10 3e
       0.14969559 -0.03621165 -0.02907353 0.1412734
000280 7b 10 2b 3d 60 6e 69 bd d9 6c 0d 3e e8 d3 40 3c
       0.041763764 -0.056990027 0.13811053 0.011769272
000290 bd 64 63 bc 92 24 de 3d b1 a2 94 bb 26 c5 32 3c
       -0.013878998 0.10846819 -0.004535996 0.010911262
0002a0 8b 62 0e bd 5e 4a fe ba f3 91 82 bc 14 d9 9e 3d
       -0.034761947 -0.0019400825 -0.015938735 0.07756248
0002b0 8e 70 e8 3d d1 bb b9 3c c8 c1 14 3e 7c b5 1c bb
       0.11349593 0.022672566 0.14527047 -0.0023911884
0002c0 f9 61 3f bd 71 cf 09 be 86 3b 46 3c e8 8e 51 be
       -0.046724293 -0.13458039 0.012099152 -0.2046467
0002d0 48 22 85 bd a5 a3 3f bc 0b 1c 71 3d 7c 68 03 be
       -0.06500679 -0.011696731 0.058864634 -0.12832826
0002e0 52 86 85 bd fa 90 af bb 7c b8 c2 bd a8 fa d5 3d
       -0.0651976 -0.0053578587 -0.09507844 0.104481995
0002f0 35 ab b9 3d aa b7 85 bd c3 b9 2c bd dc 50 d0 bc
       0.09065858 -0.06529172 -0.042169344 -0.025429182
000300 23 0f d3 bd 36 0e aa bd d4 43 4e 3c 21 26 11 bc
       -0.103056215 -0.08303492 0.012589414 -0.008859188
000310 45 f0 c4 bc 95 56 fb 3b e2 83 14 3e 05 c2 79 3c
       -0.02404035 0.0076702335 0.14503434 0.015244012
000320 81 26 81 bb 0c f0 86 bc d8 8b 3f 3c bd b3 43 bd
       -0.0039413576 -0.016471885 0.011691056 -0.047778834
000330 43 f4 ea bd a1 6d cb 3d fb 56 8d bd 96 b8 ce bd
       -0.114723705 0.099330194 -0.06901356 -0.10093801
000340 29 f6 f4 bd a7 f6 ce bd 51 55 95 3d 43 4c 40 3b
       -0.11961014 -0.10105639 0.072916634 0.002934233
000350 41 04 7c be 77 48 3c 3e b3 dc 14 3e 17 26 42 3d
       -0.24610998 0.18387018 0.14537315 0.047399607
000360 2a 5a 85 3d 2f 6f f7 3d e5 25 b5 bc 96 a5 03 3d
       0.06511338 0.120817535 -0.022112796 0.032140337
000370 16 e9 1e bb a2 65 2d 3d 57 c1 a6 3d c0 a5 8b 3d
       -0.0024247817 0.042333253 0.081423454 0.06818724
000380 5f ff 7a bd f2 88 ca bd 42 a2 0e be 8e d8 21 be
       -0.061278697 -0.098894015 -0.13929084 -0.15805265
000390 e9 43 8f bd 96 b5 3d bd 56 2e b6 3d a5 98 50 3e
       -0.06995375 -0.046315752 0.08895557 0.2037073
0003a0 a0 b0 d2 ba 4f 0b 61 bc 0f 55 be 3d d6 e7 92 3d
       -0.0016074367 -0.013735606 0.092935674 0.071731254
0003b0 2b 55 15 3e 52 ad c4 bc fc 69 94 bd 57 b2 72 bd
       0.1458327 -0.024008427 -0.072467774 -0.05925211
0003c0 e7 9b cf bd 71 3d ae bd e9 c7 0d be 10 0a c8 bd
       -0.10137158 -0.08507813 -0.13845791 -0.09767544
0003d0 64 e2 7e bd 1f 7e b8 bd fc f2 d6 3d 3c 4a 9c 3d
       -0.06222762 -0.09008431 0.10495564 0.076313466
0003e0 7e 2d d4 bd 16 cd 7e bc 55 71 07 3d b4 14 ac 3d
       -0.103602394 -0.015551826 0.033067066 0.08402386
0003f0 c0 04 bc bd 4b 2a 3c 3d 35 79 ae bd 42 c3 d0 ba
       -0.091805935 0.04593877 -0.08519212 -0.0015927332

layer1.3.bias f4 [10]
000000 47 e2 37 3e 6e 2c d9 bd 79 b0 47 be 78 7c da 3a
       0.17957412 -0.106041774 -0.19500913 0.0016669175
000010 f5 8e 94 bc 8e 24 f8 3c ce 7e 57 bd 91 98 a8 bd
       -0.018134573 0.030290868 -0.052611165 -0.08232225
000020 5a 70 9b bd b1 40 0d be
       -0.07589789 -0.13794209

layer1.4.weight f4 [10]
000000 a3 6d 97 3f dc 8e 8b 3f a1 8c 97 3f 91 c3 85 3f
       1.1830333 1.0902972 1.1839792 1.0450307
000010 d2 e2 6d 3f f3 cb 7f 3f bc 52 78 3f b6 2a 7b 3f
       0.92924225 0.99920577 0.9700124 0.98112047
000020 e6 d5 4e 3f 40 b1 6e 3f
       0.80795133 0.9323921

layer1.4.bias f4 [10]
000000 d4 7d a8 bd aa d4 57 3c e0 26 ee bd 77 53 ca 3d
       -0.08227125 0.013173262 -0.116285086 0.09879201
000010 98 8a d2 3c f9 c0 0b 3d a6 86 f2 bc d2 2d e1 bc
       0.025700852 0.03411958 -0.029605221 -0.02748767
000020 9c 72 9e bd d9 b2 15 3e
       -0.07736704 0.14619006

layer1.4.running_mean f4 [10]
000000 fd 77 70 bf 16 89 40 bd 38 21 1e bf 3e 8f 63 be
       -0.9393309 -0.047005735 -0.6176944 -0.22222611
000010 c4 dc ad bf 4a ef 74 bf d0 cc 9c 3d 46 9d a8 be
       -1.3582997 -0.95677626 0.076562524 -0.3293249
000020 06 1a 26 bf 99 87 8f bf
       -0.6488346 -1.1213256

layer1.4.running_var f4 [10]
000000 e7 87 56 3f b0 98 1c 3f 54 58 31 3f 6d 22 05 3f
       0.8380112 0.6117048 0.69275403 0.52005655
000010 98 83 13 3f 88 46 c6 3e bf 20 08 3f 6b a2 eb 3e
       0.5762267 0.38725686 0.53174967 0.46022353
000020 fe 10 09 3f 3f 3c 7e 3e
       0.53541553 0.2482767

layer2.0.weight f4 [10, 10, 3, 3]
000000 68 2d bc bd 82 32 f2 bd 0f c1 f4 bd 06 92 f2 3c
       -0.09188348 -0.1182604 -0.119508855 0.029610645
000010 ff 3e 22 3d 9b f3 73 3a 6a d7 11 3c 0f 8f 8f 3d
       0.03961086 0.00093060144 0.008901456 0.07009708
000020 2f 3e f1 3a 30 ba 01 3e 9c 1f 06 bd df 7b 72 bd
       0.0018405373 0.12668681 -0.03274499 -0.059200164
000030 77 6d b6 bc 5f 23 b4 bc f6 44 c2 bd 7d cd 02 bd
       -0.022268994 -0.021989523 -0.094858095 -0.03193425
000040 95 f9 07 be a1 4e 46 be f0 02 5f bc 8f 06 8f bd
       -0.13278802 -0.19365932 -0.01361154 -0.06983673
000050 87 7a b8 3d e8 84 61 bc 4f 72 0b 3c 33 51 10 be
       0.09007745 -0.0137645975 0.00851114 -0.14093475
000060 98 f9 7e 3d 36 ab 34 3e 8a b4 ca 3c a6 5c 4b 3d
       0.06224975 0.17643437 0.02474429 0.049648903
000070 da c5 6a 3d c1 0a ef 3d fe 48 a4 bc c9 73 a2 3d
       0.057317592 0.11671973 -0.020054337 0.079322405
000080 73 10 85 bc c5 26 3d 3d 89 f1 40 bd 03 03 ca bd
       -0.016243195 0.04617955 -0.047105346 -0.09863856
000090 29 2d 7c 3d ee 49 73 3d 53 56 57 bc 67 be 44 bd
       0.061566506 0.059396677 -0.01314314 -0.048033144
0000a0 3f 8c ca 3d aa 66 07 3d b0 c0 40 3d ce 6f ea 3a
       0.09890031 0.033056892 0.04705876 0.0017886104
0000b0 5c e0 0f 3e 67 34 88 3d f3 ee c3 3c bf 13 d7 bd
       0.1405043 0.0665062 0.02391765 -0.10501813
0000c0 a4 81 a0 3c e3 d3 75 bd a0 bb fe bd 3c af d0 3d
       0.019593067 -0.060016524 -0.124381304 0.10189673
0000d0 77 a0 7c 3e b4 ca 23 3e eb ef 25 bb 3c af 38 3d
       0.24670587 0.15995294 -0.0025320004 0.04508899
0000e0 40 17 1b be ad 96 11 b9 88 16 57 3b 91 57 d0 bd
       -0.15145588 -0.00013884409 0.0032819826 -0.10172952
0000f0 8e 74 2c 3d c2 18 43 3d b5 69 89 bd 0e 17 da 3d
       0.042103343 0.047631033 -0.06709615 0.106489286
000100 a8 44 81 3d 65 5b 39 3e 29 8c 6d bd c8 e8 d9 bc
       0.06311923 0.1810127 -0.057994995 -0.026600257
000110 60 a9 58 bd 1a 7f 05 be 4d 42 e7 bd e6 32 94 3a
       -0.052895904 -0.13036767 -0.11291943 0.0011306673
000120 58 8b 2d 3d a5 a0 e5 bd c6 64 3b 3d 0c f5 b3 3d
       0.042369217 -0.11212281 0.045750402 0.08786973
000130 95 1e 0a 3e c9 18 35 3d 53 02 5c 3d 64 66 91 bd
       0.13488229 0.04421309 0.053713154 -0.070996076
000140 0a 2c 03 3d 57 69 dc 3d 9c de 93 bd 75 74 a1 3d
       0.03202442 0.107622795 -0.07220194 0.078835405
000150 96 73 23 3e 77 03 06 3d ed e6 01 3c ef 9d ef 3d
       0.15962061 0.032718148 0.007928592 0.11700045
000160 8c 56 b2 3d 18 e2 c6 3d e2 17 e6 3d f3 a2 87 3e
       0.08707914 0.09711093 0.11235024 0.26491508
000170 e8 c0 d4 3d 58 d5 67 3e 48 5c ed 3d 2f 0c 0a 3e
       0.103883564 0.22639978 0.11589867 0.1348121
000180 14 9d 38 3e 0c 03 b7 bb 64 fe a0 3c 94 ae ac 3d
       0.1802867 -0.00558508 0.019652553 0.08431736
000190 46 99 e3 3c 92 c1 64 bd dd df fe 3d 5e de 06 3e
       0.027783047 -0.055848666 0.12445042 0.13170764
0001a0 ef e1 29 bd 5e 6f 09 bd 78 71 a8 bd 14 a9 82 3d
       -0.041475233 -0.033553474 -0.082247674 0.06379905
0001b0 86 f6 a5 3d 6a 08 d5 3d 30 0f bb 3d 5e b4 75 bd
       0.08103661 0.104019955 0.09133756 -0.059986465
0001c0 53 99 3f 3d 73 50 f9 3c 91 3a 48 3d 11 90 0a be
       0.04677708 0.030433869 0.04888398 -0.1353152
0001d0 22 64 88 3d 9b 8d fa 3d ca a5 44 3d f7 6e ae 3d
       0.06659724 0.1223404 0.04800967 0.085172586
0001e0 26 9a 40 3d 4c d1 29 3e 78 32 f1 3a fd d8 01 bd
       0.047022007 0.16583747 0.0018401882 -0.031701077
0001f0 ec f7 0f 3e 08 2b 58 bd 4e 90 f2 bc 4f e0 5e 3d
       0.14059418 -0.052775413 -0.029609825 0.054413136
000200 9d fd 76 bd b6 85 f7 bb 3e 09 e2 bc 93 f0 da bd
       -0.06030046 -0.0075537814 -0.027592298 -0.10690417
000210 9a d1 84 3d 60 f8 04 be 1a 90 f2 bd 70 39 dd bc
       0.06485291 -0.12985373 -0.118438914 -0.027004927
000220 6c c8 a4 bc b6 96 ea bd 56 9d 96 3d 6f 60 37 3d
       -0.0201151 -0.11454527 0.07354228 0.0447697
000230 40 cc b5 bd 9a 82 d9 3d b3 bc c1 3b 9a 37 3e bc
       -0.08876848 0.106206134 0.0059123873 -0.011609936
000240 e2 50 5d bd f6 f9 8f 3d c6 70 bd 3d ed b1 26 3e
       -0.054032214 0.07030098 0.092500255 0.16278811
000250 9b 2e 9a 3c d3 a3 bb 3d a4 b9 73 3d 56 29 18 3d
       0.018821051 0.09162106 0.059503213 0.037148796
000260 ea e8 90 bc af 27 8c 3c f3 17 26 be b7 39 ca 3d
       -0.017689187 0.017108766 -0.16220073 0.098742895
000270 2f 04 c0 3b 3f 67 70 bd 9f 28 06 be 28 18 1b bc
       0.0058598737 -0.058692213 -0.13101433 -0.0094662085
000280 eb fa 0d be c5 e5 f2 bd 96 23 34 3c 76 1f 09 3d
       -0.13865249 -0.11860231 0.0109948125 0.03347727
000290 e4 8f e3 3d 02 90 00 3e 5d bc d6 3c b6 75 cb bc
       0.11111429 0.12554935 0.026212865 -0.024836402
0002a0 ec 7e 0b 3e 16 6e 2b bc a4 b0 2e bd 3b 9a 8f 3d
       0.13622636 -0.010463258 -0.042648926 0.07011839
0002b0 34 97 f3 bd 11 fd 06 be b4 aa 6d 3d a2 d1 30 bd
       -0.11894074 -0.13182475 0.058024123 -0.04316867
0002c0 96 4c a7 bc dd 73 96 3b 6f 11 6c bc 4f 19 80 3d
       -0.020422261 0.0045914487 -0.014408453 0.06254827
0002d0 3e 65 41 be 6b 09 13 bd a5 0d e4 3d 86 16 e6 bd
       -0.18886277 -0.035897654 0.11135415 -0.11234765
0002e0 79 e1 ed bd 17 b4 bf 3c 00 ba a9 3b fe 87 52 3d
       -0.11615271 0.023401303 0.0051796436 0.051399224
0002f0 05 de 4e 3d 5d 67 09 be 60 c1 2f bd b0 2b 37 3e
       0.050504703 -0.13418336 -0.042909026 0.17887759
000300 ba 3a 86 bd 11 2e 84 3d b1 e5 04 3e f1 3e 21 bd
       -0.0655417 0.06454099 0.12978245 -0.039366666
000310 ad 8f c6 bb 11 9f 25 3d 69 7f 2a 3c c2 0b ef bb
       -0.006059608 0.0404349 0.0104063535 -0.007295103
000320 50 d5 69 3d 08 5b 32 be 9e 2d 83 3d 60 78 07 3e
       0.057088196 -0.17417538 0.06405185 0.13229513
000330 72 ef 59 bd e7 9b 13 3e 4b 44 f8 3d da 35 a6 bd
       -0.05320687 0.14414941 0.12122401 -0.0811574
000340 12 42 16 3e 29 36 8a bd e7 ef 91 be 50 13 23 3d
       0.14673641 -0.067486115 -0.28503343 0.03981334
000350 37 5d d6 3c c7 2d 7e be 4a f1 b3 bd 47 fb 53 bd
       0.026167495 -0.2482215 -0.087862566 -0.05175331
000360 8d 58 de 3d 93 99 ec 3d 9a 28 d6 3d ce cc 7a bd
       0.108567335 0.115527295 0.10456963 -0.061230473
000370 b0 92 bc 3d f5 5d 8f 3d fb ce d5 bc 2c 4b 6a 3d
       0.09207666 0.07000343 -0.026099673 0.057200596
000380 8c 05 74 3d 54 30 77 3d 11 ea 79 3d 5d ec e3 3d
       0.059575602 0.060348824 0.06101424 0.11129067
000390 fb fa f9 3c ff 2b ed 3d 33 5f bf bd 05 83 c9 3b
       0.030515185 0.11580657 -0.0934433 0.006149652
0003a0 20 7d 0d bc a1 ac d1 3b 42 d7 bc bc b4 0d 0a bc
       -0.008635789 0.006398753 -0.023051862 -0.008426119
0003b0 8d 71 c8 bd 9e fd d7 bc 52 9f 25 bd bb d5 3c bd
       -0.09787283 -0.026366051 -0.040435143 -0.046102267
0003c0 c5 6e 7e bd 25 25 0f be cc 3c 2b bd 4b 0b 0f 3d
       -0.062117357 -0.13979013 -0.041806027 0.03492288
0003d0 23 dc ac bd 68 22 43 3e 1e 7c f5 ba 03 4b c7 3d
       -0.08440425 0.19056094 -0.0018729006 0.09731104
0003e0 9a ed b1 3d f6 97 a4 bd 04 ad 2a 3d b4 51 26 3c
       0.08687897 -0.08036797 0.041668907 0.0101513155
0003f0 a3 a6 54 bd 5f a2 89 3d 1c 01 0b 3e 2d 4f 86 3d
       -0.05191673 0.06720423 0.13574642 0.0655807

layer2.0.bias f4 [10]
000000 45 25 b1 bd 59 64 03 3d 90 a7 9b 3d e5 c7 c9 bd
       -0.08649687 0.03207812 0.076003194 -0.0985258
000010 20 f6 91 bd 7d bf 35 bc c8 80 4c bd 26 7c d3 bd
       -0.07127023 -0.011093018 -0.049927503 -0.10326414
000020 dd 6a ff 3d 86 1c 08 be
       0.124715544 -0.13292131

layer2.1.weight f4 [10]
000000 24 ab 7d 3f 07 22 78 3f 35 82 80 3f 9d 51 80 3f
       0.99089265 0.9692692 1.0039736 1.0024906
000010 e0 8c 8e 3f 0a 1b 7c 3f 8f e9 87 3f 56 8b 6e 3f
       1.1136742 0.9847876 1.0618151 0.9318136
000020 d8 1f 8d 3f 6b 02 77 3f
       1.1025343 0.96488065

layer2.1.bias f4 [10]
000000 2f 08 89 bd 8b d5 de bc f1 9b c6 bd 53 6d 63 ba
       -0.06691014 -0.027201435 -0.09697712 -0.00086756534
000010 69 cc 31 3d 42 e3 2e 3b af 68 af bd ae 05 b7 3b
       0.04340783 0.002668575 -0.08564889 0.005585394
000020 33 c1 fc bc 32 e6 8f bd
       -0.030853843 -0.07026328

layer2.1.running_mean f4 [10]
000000 75 6e f2 3e 19 2f 5d 3f 32 15 1a 3f 7c 64 10 3f
       0.47349897 0.8639999 0.6018859 0.56403327
000010 7d 16 88 bf 6e 57 4e be 2e 71 3d 3e ab fb 5e be
       -1.0631863 -0.2015054 0.18500206 -0.21775691
000020 55 8c 25 bf 39 43 eb 3e
       -0.64667255 0.45949724

layer2.1.running_var f4 [10]
000000 4a b5 84 3f 6d be 89 3f cb 63 98 3f b8 8b 2c 3f
       1.0367825 1.0761238 1.1905454 0.67400694
000010 6d e1 9c 3f 47 91 9d 3f 62 d6 48 3f c1 dc 88 3f
       1.2256294 1.230996 0.7845212 1.0692369
000020 e3 a9 99 3f 9f 13 6b 3f
       1.200497 0.91826814

layer2.3.weight f4 [10, 10, 3, 3]
000000 54 47 21 be 28 c1 22 be f2 20 60 bd 30 8f cf bd
       -0.15749866 -0.15893996 -0.05471892 -0.10134733
000010 48 b3 47 3d 53 54 ac 3b 1c 3c e3 3c d7 d2 d1 bd
       0.04875496 0.0052590757 0.027738623 -0.10245293
000020 33 12 b5 3d 4b e0 8f 3c 26 4b ff bd 07 28 4f bd
       0.08841362 0.017563006 -0.12465505 -0.050575282
000030 46 2b d2 bd 7d a5 38 3c 3d 5b 34 be 91 1c 26 bd
       -0.1026216 0.011269924 -0.1761293 -0.040554587
000040 b8 f2 d9 3d c3 a6 6d be 92 71 b2 3c 22 c4 b1 bd
       0.10641998 -0.23208146 0.02178267 -0.086799875
000050 be f7 c3 3a ef b3 03 bd d9 5e b9 3c 8f 7f d3 bc
       0.0014951152 -0.03215402 0.022628235 -0.02581766
000060 7e 27 24 bd 44 fc 8f 3d 86 d3 9f bd 13 e0 a2 bd
       -0.040076725 0.07030538 -0.07804017 -0.07952895
000070 b1 2a d4 3d 8d 60 f7 3b fa f1 c4 3d 28 54 e4 3d
       0.10359705 0.0075493515 0.09616466 0.11148864
000080 e5 46 e2 bc d1 e5 be 3c 52 43 ca bc 3d 03 9f 3d
       -0.027621696 0.023302944 -0.024690304 0.077642895
000090 34 ce 99 bc c3 cb 97 bc 07 14 d3 bb 36 39 9b 3d
       -0.018775083 -0.018529778 -0.0064415964 0.075792715
0000a0 f6 61 5e bc fa dc 62 bc 9a 1b 94 3d e1 59 8a bc
       -0.01357316 -0.01384663 0.07231827 -0.01688856
0000b0 90 ec 82 bd 9b 9c 06 be 39 e0 55 bd f5 4f 2a 3e
       -0.06392777 -0.13145678 -0.05221579 0.16632064
0000c0 fd fc 88 3c 19 34 dd 3d b4 74 f8 3d 3b c2 4d bd
       0.016722197 0.108009525 0.12131634 -0.05023406
0000d0 b0 67 5e bd 9e 09 10 bd 2c f7 88 bd cb 3d 0b bc
       -0.054298103 -0.03516542 -0.06687769 -0.008498619
0000e0 7c 84 6e 3c a6 41 42 3c 9c 8f 72 3d 55 ff 3c 3e
       0.014557954 0.011856472 0.059218988 0.18456776
0000f0 7a eb 30 3e 14 b9 cf 3d 50 23 8d 3c c6 bf dc 3c
       0.17277327 0.10142723 0.017228752 0.026946913
000100 72 f9 40 3c 78 4c 72 3b 06 15 56 bd 58 70 a5 ba
       0.011778222 0.0036971848 -0.052266143 -0.0012621982
000110 c9 44 e6 bd 0c 66 a1 bd 55 dd 99 bd e8 12 0d 3d
       -0.112435885 -0.07880792 -0.07512919 0.03444186
000120 2f 35 2e 3c e6 7d dc bd 46 d6 15 be 12 5b bf bd
       0.010632797 -0.10766201 -0.1463252 -0.09343542
000130 10 61 72 3c b3 99 bd 3d 5b 23 57 3d a7 ce 6e 3d
       0.014793649 0.092578314 0.052523952 0.058302548
000140 9a 94 9b bd 76 81 12 be 08 6d 47 3b 77 0d 8b bc
       -0.07596703 -0.14307198 0.0030429978 -0.016974194
000150 45 70 d2 3d 9a 0e d8 bc 84 c5 b8 3d 75 04 02 3e
       0.1027532 -0.02637415 0.09022048 0.12697013
000160 4c 40 49 3d c1 3c 8b bd 9d 17 fe 3c ca 12 83 bc
       0.049133584 -0.06798697 0.031017119 -0.01600017
000170 b6 20 48 bb 0a 91 a3 bd da fd 34 bd 8b c1 be bd
       -0.0030537075 -0.079866484 -0.044187404 -0.09314259
000180 f8 b1 34 bb d8 06 18 be 3e 37 0b be d3 6b 1b 3d
       -0.0027571898 -0.1484636 -0.13595292 0.037944626
000190 98 91 43 3d 4b be 40 3d 87 70 d4 3d e2 4e 31 bd
       0.04774627 0.047056478 0.103730254 -0.04328812
0001a0 9e 12 83 3d 8c 0e 17 3c 0c cb f8 bd ae e7 9a bc
       0.06400035 0.009219777 -0.12148103 -0.018909302
0001b0 f0 87 b5 bc ac f0 4f 3c 90 8e 93 3d f3 d5 8b 3c
       -0.022159547 0.012691658 0.07204926 0.017069792
0001c0 f1 c6 2a bc 34 82 58 3c fe d7 23 bd d8 4e b8 bb
       -0.010423408 0.013214637 -0.040000908 -0.0056246333
0001d0 2e a2 0f 3d 6f f2 af bd 47 9e 75 3d 9b 88 25 3e
       0.035066776 -0.085911624 0.0599654 0.16165392
0001e0 fb 3e c4 bd b9 62 e8 bd 18 5b ae 3d 7d a8 0e 3d
       -0.09582325 -0.11346955 0.085134685 0.03482865
0001f0 07 05 10 3d 77 47 72 3c 9c 62 4b bc ea 3c 3d 3d
       0.035161044 0.014787546 -0.012413647 0.04620067
000200 20 20 13 3e cd 13 be bd 37 44 f1 bd e2 e4 07 3b
       0.14367723 -0.092811204 -0.11780589 0.002073579
000210 51 3e af bb e0 34 cd bd 2c e0 44 be c8 39 f8 ba
       -0.005348005 -0.10019851 -0.1922614 -0.0018938119
000220 23 83 30 bd 12 80 85 bc 35 df 98 bd 68 a2 04 be
       -0.04309381 -0.01629642 -0.07464448 -0.12952578
000230 ae 23 df bd a7 62 7c bd a7 09 70 bd 82 fa d9 bd
       -0.10895477 -0.06161752 -0.058602955 -0.10643484
000240 d0 c9 69 bc b9 05 87 bd 40 eb fb 3c 4a 7d 6d 3d
       -0.014269307 -0.065928884 0.030751824 0.057980813
000250 86 28 e4 3d 95 e6 90 3c f7 7d 93 bd 21 c2 74 bd
       0.11140542 0.017688075 -0.0720176 -0.05975545
000260 e8 f0 0e be 0c 57 8d 3d a9 8c a7 3c a0 5d 89 bb
       -0.13959086 0.069013685 0.020452814 -0.004192069
000270 1c fc 85 3d b5 2e a3 bc 53 09 cf 3d cd f4 d6 3d
       0.06542227 -0.019919733 0.101092 0.10495911
000280 0d ef 67 bd 82 53 1c 3e 70 0d ea bd e4 b6 ac bd
       -0.05662446 0.1526623 -0.11428344 -0.08433321
000290 a1 e5 d7 bc e4 59 00 3e 2f fa 85 bd e2 7b 2e bd
       -0.026354613 0.1253429 -0.06541859 -0.042598613
0002a0 d0 e9 2a 3e 4d a6 a0 3c e2 a8 ad 3a 68 76 8e bd
       0.16690755 0.019610548 0.0013249184 -0.06956178
0002b0 7e 5f d6 3d 98 6a 38 3e 60 b8 f7 bd bd c7 91 bd
       0.104674324 0.18009412 -0.120957136 -0.07118175
0002c0 66 a7 2c 3e a9 54 7c 3d d4 fd 01 bd ea b4 ce 3d
       0.16860732 0.061604176 -0.03173621 0.100931
0002d0 fb b9 29 3d cd 84 be bc 40 04 ad bd 27 b3 7d bd
       0.04143713 -0.023256684 -0.08448076 -0.06193843
0002e0 04 52 82 bd e4 19 45 bd 93 2d b0 bc 3f 0e 7a 3d
       -0.063632995 -0.048120394 -0.021506106 0.061048742
0002f0 b9 ee 9c bd 78 fd 0f bd 2e 07 60 3d 4b 5a 1b bd
       -0.0766272 -0.035153836 0.054694347 -0.037927907
000300 19 f3 25 bd 1f 90 4b bc bd c9 4c 3d cc 70 a4 bc
       -0.04051504 -0.012424498 0.04999708 -0.020073317
000310 97 cc 9e 3d 5e e8 a4 3d 2e 7a c7 3c 0e 1f 4e bd
       0.07753866 0.08052133 0.024350252 -0.050322585
000320 8c fa 20 bd d1 8b 37 3d 98 be 41 3d f2 cc f9 3b
       -0.03930144 0.044811074 0.047300905 0.0076233083
000330 ab ac 10 3e 06 71 fc 3d 33 b5 10 3e eb e8 72 bc
       0.14128368 0.12326245 0.14131622 -0.01482604
000340 35 d3 07 3e 82 89 fe 3c 0b a6 76 3d d4 ae 19 3d
       0.13264163 0.031071428 0.060216945 0.037520245
000350 ee e8 15 3d b7 fd 5f 3e 90 1d b1 3d 0e 9c 0e 3e
       0.036599092 0.21874128 0.08648217 0.13926718
000360 71 9f be 3d aa 19 56 bc 61 7e 16 bd 28 0f 03 be
       0.09307755 -0.013067642 -0.036741618 -0.1279875
000370 82 c3 9e bc a8 cc 24 bd be 38 c9 3d 54 b3 3c 3e
       -0.019380335 -0.040234238 0.09825276 0.18427783
000380 09 9e 2d 3e 8a 2c 02 3e 0b 9d 25 3d bf 5c 75 bd
       0.16954817 0.12712303 0.04043297 -0.059902903
000390 bb b4 56 3d 02 03 80 bd 63 8f c0 bd 81 ef 84 bd
       0.05241845 -0.06250574 -0.09402349 -0.06490994
0003a0 55 aa 55 bd ff 72 f8 bd 18 09 5e 3d 5d aa 25 3e
       -0.052164394 -0.12131309 0.05420789 0.1617827
0003b0 84 66 b9 3d b3 32 44 3d d2 62 9c bd 78 ea fc bb
       0.090527564 0.047899913 -0.07636036 -0.0077183805
0003c0 a1 25 ae bc e1 a6 c7 bc 64 71 35 3d 67 6a 98 3d
       -0.021258177 -0.024371566 0.04429759 0.0744217
0003d0 2c f4 ce 3d fe a2 d8 bc 4c 74 c9 bc bd 08 0e bc
       0.10105166 -0.026444908 -0.024591587 -0.008669076
0003e0 94 32 e5 3c db 91 b6 3d cc 92 9d 3d 4d fd 91 3c
       0.02797822 0.089145385 0.07694015 0.017820979
0003f0 9b 49 ba bb 8a e5 d4 bb b7 b9 4d 3e 17 9a 08 bd
       -0.005685044 -0.0064970898 0.20090376 -0.033350077

layer2.3.bias f4 [10]
000000 c3 c0 64 3d 3c 18 f5 bc 87 36 00 3e fe cb 72 3d
       0.055847894 -0.029918782 0.125208 0.059276573
000010 94 8f ee bc ff ae 19 bc 78 61 47 bd 76 de f9 bc
       -0.029121198 -0.009380101 -0.048676938 -0.030501585
000020 15 6a b3 ba 41 bc 13 bd
       -0.0013688231 -0.036068205

layer2.4.weight f4 [10]
000000 30 f9 7c 3f ec da 7e 3f 4a e5 73 3f 0a 9a 88 3f
       0.9881773 0.995528 0.9527174 1.0672009
000010 db 49 98 3f df fc 84 3f 9f 04 70 3f d6 ff 80 3f
       1.1897539 1.038967 0.9375705 1.0078075
000020 29 6e 81 3f a3 47 74 3f
       1.0111743 0.9542181

layer2.4.bias f4 [10]
000000 14 9f c5 bd bc 0b d0 bc 5c ce 2b be 5f f7 24 3c
       -0.09649482 -0.02539622 -0.16777939 0.0100687435
000010 30 45 3e 3d b9 e6 49 3c 3c 29 00 be 2a 90 90 bd
       0.0464527 0.012323075 -0.1251573 -0.07058747
000020 cc 6f 28 be 6d 66 48 be
       -0.16448897 -0.19570322

layer2.4.running_mean f4 [10]
000000 f3 13 25 be 1a eb 91 be b4 c6 19 3f 8e 4e 66 bf
       -0.16120891 -0.2849968 0.6006882 -0.89963615
000010 86 6c 54 bf 48 41 71 bf 67 34 2f 3e ba 0b 52 3f
       -0.82978094 -0.94240236 0.17109834 0.82049143
000020 c7 4e 40 3e 78 02 11 3e
       0.18780051 0.14161098

layer2.4.running_var f4 [10]
000000 dc a9 c1 3e ac 75 99 3e 8b c4 ba 3e e8 d2 c0 3e
       0.37824905 0.2997259 0.36478075 0.3766091
000010 c4 8b 18 3f b5 de 9e 3e 48 36 dc 3e a7 84 b3 3e
       0.59588265 0.31029287 0.43010163 0.35062143
000020 89 9d b7 3e 40 d1 22 3f
       0.35862377 0.6360054

layer3.0.weight f4 [10, 10, 3, 3]
000000 f0 d6 00 be a1 ec 26 bd e9 96 e0 bb 5a 69 06 3e
       -0.12581992 -0.04075301 -0.0068539274 0.13126126
000010 b0 d1 13 3d a1 1c d4 3d fd 66 26 3e 84 66 e2 3c
       0.036088645 0.10357023 0.16250224 0.027636774
000020 28 ab ca bd 9e 57 16 3c 68 87 59 3d 63 23 8d 3d
       -0.09895927 0.009176163 0.05310765 0.06891515
000030 90 0a 4b 3d b7 fa b0 3d 1a c8 2b 3e a3 bf 99 bc
       0.04957062 0.0864157 0.16775551 -0.018768137
000040 a8 cc 20 3e f0 9f 4b bb 5c c3 ec bd ea cc 28 3d
       0.1570307 -0.0031070672 -0.11560699 0.041211046
000050 a3 1f e4 bd 88 29 fa bb f4 87 e1 bd a4 b4 9b 3c
       -0.11138847 -0.0076343454 -0.11012259 0.019007035
000060 84 9c 30 3d 3d f6 e7 3c a0 f5 1f bc 48 22 07 bd
       0.043118015 0.028315658 -0.009763151 -0.032991678
000070 96 9c a4 3d 2c 29 01 3d 6d aa a5 bc dd 17 04 bd
       0.08037679 0.031533405 -0.020222867 -0.03224932
000080 c4 bf e4 3c 64 4b 5f 3d 0e 19 17 be e9 e4 3f be
       0.027923472 0.054515257 -0.14755651 -0.18739666
000090 05 69 1a 3e d4 8d 80 bc e6 e9 52 3d 93 92 a9 3d
       0.15079124 -0.015692629 0.051492594 0.0827991
0000a0 7d a4 d2 bd 7e 15 84 3b 08 c4 3f 3e 4d 57 4b 3e
       -0.1028528 0.0040308824 0.18727124 0.19857521
0000b0 2b 19 b1 3c bc 43 ec bc 6e 75 72 3b db 2b a5 3d
       0.021618446 -0.028840892 0.0036996263 0.080650054
0000c0 b7 9f 14 be 22 46 db bd a1 ea 1d be e1 04 27 be
       -0.14514051 -0.10706736 -0.15421535 -0.16310455
0000d0 bb 94 29 be be cf f9 bc 92 3a 25 be f8 5a 8c 3d
       -0.16560642 -0.030494567 -0.16135624 0.068532884
0000e0 32 ca 66 3d da 9c 9f 3c 9f 64 a2 3c 11 00 b9 3d
       0.056345172 0.019483972 0.01982337 0.09033216
0000f0 a6 98 ea bb ac 7f 61 bd e4 b9 02 3d 0a e0 16 3d
       -0.0071593104 -0.055053398 0.03191556 0.036834754
000100 a4 58 9a 3d f9 77 93 3d 2a fb f9 3d db ac 7b 3d
       0.07536438 0.07200617 0.12206109 0.061444145
000110 d0 94 dc 3d 64 89 41 bb b5 4b 80 bd 9a 56 65 3c
       0.10770571 -0.0029531354 -0.0626444 0.013997698
000120 20 26 b6 bb 4c 2b 0c 3d 08 12 99 bd bc 19 bd bd
       -0.005558744 0.03422098 -0.07474142 -0.09233424
000130 36 6e e0 bb b0 a5 63 bd f3 19 a8 3d 7d 21 a8 3d
       -0.0068490757 -0.055577934 0.082080744 0.082095124
000140 f0 93 a5 3d 8c e5 f9 bb 02 9e c1 bc 76 17 f3 bd
       0.080848575 -0.007626241 -0.023634914 -0.11869709
000150 8c 34 70 bd 6b 0b 09 3d ff 51 00 bd 8a 58 81 bc
       -0.058643863 0.033458155 -0.031328198 -0.015789289
000160 50 a7 2a bd 2d ff 90 3d 5a ed ed 3d 25 89 83 3d
       -0.041663468 0.07079921 0.11617537 0.064226426
000170 2e 76 0d 3e 43 bb 80 3d 1c be 80 bc 24 26 af 3d
       0.13814613 0.06285717 -0.015715651 0.085521966
000180 b4 8c e2 3c 98 1f d0 3d 76 28 ba 3d 64 c9 80 3e
       0.027654983 0.10162276 0.090897486 0.2515365
000190 82 1b 82 3c 8a 2d c3 3b 57 2f 18 bc 19 00 49 3d
       0.015882257 0.0059563564 -0.00928863 0.04907236
0001a0 09 69 c7 3c 18 e9 28 3b e9 ce 2d 3d 2f 46 02 3c
       0.024342077 0.00257737 0.042433653 0.007951303
0001b0 10 0b 75 bd 6a 93 86 bd 4f dd ed bc 2c 27 10 3d
       -0.059825003 -0.06571086 -0.029036192 0.035193607
0001c0 dc 96 21 be d6 fe 18 3d 36 ba 6a 3b 46 4e 07 3c
       -0.15780205 0.037352405 0.0035816557 0.008258408
0001d0 f4 f6 1c 3b 97 d1 8c 3e 92 70 3e 3d 86 bd ae 3d
       0.0023950906 0.27503654 0.046494074 0.085322425
0001e0 98 23 7c 3e 72 e5 1b bd c8 95 fb 3c 99 3a d2 3d
       0.24622953 -0.038060613 0.03071107 0.10265083
0001f0 24 b2 66 bc a8 b9 4d bb e1 63 7f bd 2d 98 91 bd
       -0.014080558 -0.0031391177 -0.06235111 -0.07109103
000200 32 b0 a7 bc 37 98 00 be a1 76 95 bc c1 de 93 bd
       -0.020469759 -0.12558065 -0.018245043 -0.07220221
000210 c0 e9 86 3e b5 a8 4e 3e 2d 07 0c 3d 19 a1 91 bd
       0.26350212 0.20181544 0.03418653 -0.07110805
000220 93 99 5a be a4 cc e1 3c ef e6 82 bd 7c 99 04 be
       -0.21347646 0.0275634 -0.06391703 -0.12949175
000230 47 fb 14 bd 39 63 bc bd 5e 55 32 be 94 cd 67 3d
       -0.03637245 -0.09198613 -0.17415377 0.05659254
000240 80 f1 5f 3d 07 cd 2a 3c 2e 5a 9b bd f9 f9 a7 3d
       0.05467367 0.010424859 -0.0758556 0.082019754
000250 99 df 62 3d 6d ba a2 3d 53 1e 35 3d b1 66 11 bd
       0.05538902 0.07945714 0.044218373 -0.035498325
000260 26 b6 93 3c 27 91 2b 3e 14 c0 92 bd b3 95 3e 3d
       0.018031191 0.1675459 -0.07165542 0.046529483
000270 07 3b 0a bc 56 82 c6 bd 45 76 b5 bd a7 dc 23 be
       -0.008436925 -0.09692828 -0.08860449 -0.16002141
000280 bc de 5c bd 50 bb 87 bc 12 db d2 3b 91 64 3a 3c
       -0.053923354 -0.01656881 0.0064348066 0.011376516
000290 2e e8 20 3d 97 29 6a bd e3 bf da bd 58 28 ff 3c
       0.039283924 -0.05716857 -0.10681131 0.031147167
0002a0 91 4b 51 bd 80 a9 05 3d a5 bb e1 bb 76 d4 e7 3d
       -0.051097456 0.03263235 -0.006888824 0.113198206
0002b0 bb 80 3b 3d 02 2c 9b bd 08 95 98 3d 2b c4 d0 bc
       0.045777064 -0.07576753 0.074503005 -0.025484165
0002c0 f4 c7 84 3d db 79 8c bd 89 53 13 3c b0 e9 51 3d
       0.064834505 -0.068591796 0.008992084 0.051248252
0002d0 ca fc d4 bd 1d cd 88 3d 45 98 70 3d 4a 02 02 be
       -0.10399778 0.06679747 0.058738966 -0.12696186
0002e0 30 73 5c 3d 13 2e 55 bd 52 af 10 be 38 77 48 3c
       0.05382079 -0.052045893 -0.1412938 0.012235455
0002f0 da 3e 7c bc 31 a5 9a 3d db 40 1c 3c 04 a8 81 3d
       -0.015395844 0.07551039 0.009536947 0.063308746
000300 16 3d f1 3c 0d 19 26 bc a4 d4 3f 3e 5f 01 e5 3c
       0.029448073 -0.0101378085 0.1873346 0.027954755
000310 de b8 43 ba 92 c9 d0 bd b0 a2 13 be 6c 04 a2 3d
       -0.0007466207 -0.101946965 -0.14417529 0.07911
000320 e4 65 b9 3d 6d 7b 94 3c 45 b7 1a 3e 40 2f 99 3c
       0.09052637 0.01812526 0.15108974 0.018699288
000330 16 7b 99 3d 90 d1 83 bd 85 78 81 bd 52 53 92 bd
       0.0749418 -0.06436455 -0.063218154 -0.07144798
000340 70 8b 98 bd 04 86 b3 bd 73 5a 0f bd f1 d0 25 be
       -0.074484706 -0.08765796 -0.03499837 -0.16192986
000350 c1 16 f3 bd a8 74 cb 3c 1d 3b fc bc 54 23 b2 3d
       -0.11869574 0.0248359 -0.030789906 0.086981446
000360 0a 0d f3 3d 2d 63 03 3e de 36 a2 3d b1 ee b4 bd
       0.118677214 0.12830801 0.07920621 -0.08834589
000370 b7 4d 8d 3e 9c e6 3d 3d e4 07 02 b9 82 c0 1f bc
       0.27598354 0.046362504 -0.00012400706 -0.009750487
000380 93 6f ab 3d 1c 73 88 3c e8 7b a4 bb 6c ab 2d 3d
       0.083708905 0.01665645 -0.0050196536 0.04239981
000390 f2 a0 8e bd b1 ff 18 bd a1 de 00 be b3 28 6b 3e
       -0.06964292 -0.03735322 -0.12584926 0.22964744
0003a0 23 3a b9 bc f8 89 04 bd ac 84 54 3d b9 b9 3b 3d
       -0.02261073 -0.03235814 0.05188434 0.045831416
0003b0 3d 4a af bc 6e 80 8e bd 55 cc be 3d f4 5e ea 3d
       -0.021397704 -0.0695809 0.09316317 0.11443892
0003c0 33 e4 ca 3b 22 c6 36 3d ff 1f b0 bd 5f a8 0a bc
       0.0061917542 0.044622548 -0.08599853 -0.008462994
0003d0 0d e6 39 bd 52 87 7f bb 24 68 ed bd 65 09 1c bd
       -0.04538541 -0.003899057 -0.11592129 -0.038094897
0003e0 55 5e 60 3d 11 7d aa 3b 84 9d 8a 3d 1a ad e1 3c
       0.054777462 0.0052028974 0.06768325 0.027548362
0003f0 79 9a 24 3e f8 f0 54 3d 73 8b 7a bd 15 9d 47 bd
       0.16074552 0.05198762 -0.061168145 -0.04873379

layer3.0.bias f4 [10]
000000 61 65 f2 3d 57 a4 9f bd 4c 4e c4 bd ff 45 7b bd
       0.11835743 -0.07795017 -0.095852464 -0.06134605
000010 fc 13 c9 bd 5e 31 66 3c 80 e8 88 3d 82 90 5f bb
       -0.09818265 0.014049856 0.06684971 -0.0034113233
000020 dc 9c 9e 3d fb 53 fd 3c
       0.07744762 0.030923834

layer3.1.weight f4 [10]
000000 b6 49 c8 3f 12 15 d0 3f 9c 9a e5 3f d6 c9 d6 3f
       1.5647495 1.625643 1.7937808 1.6780345
000010 b5 1f cc 3f b8 fa d6 3f 35 31 c9 3f ca 57 c0 3f
       1.5947176 1.6795263 1.5718142 1.5026791
000020 30 e7 d0 3f 23 dc c9 3f
       1.6320553 1.5770305

layer3.1.bias f4 [10]
000000 81 cc 4f 3e 02 eb 6e 3e 76 1c bf 3e b8 35 93 3e
       0.20292856 0.23331836 0.373264 0.28751922
000010 46 d5 a1 3e f4 2e a5 3e e4 61 5b 3e 89 63 88 3e
       0.31608027 0.32262385 0.21424061 0.2663844
000020 82 48 51 3e 23 92 81 3e
       0.20437816 0.25306806

layer3.1.running_mean f4 [10]
000000 0e c2 ac 3e da 1d 8e 3e 59 39 9f 3e 91 1d 91 be
       0.33741802 0.2775715 0.3109844 -0.2834287
000010 43 70 90 3e 4b 4d 50 3e fb 45 9c be 22 f9 87 3c
       0.2821065 0.20341985 -0.3052214 0.016598288
000020 78 eb 9a 3e 81 a4 2a 3f
       0.30257773 0.66657263

layer3.1.running_var f4 [10]
000000 23 1f b8 3e 92 c5 cd 3e bd 93 99 3e a6 a7 b2 3e
       0.35961255 0.40189797 0.29995528 0.3489353
000010 dd 7d c0 3e d0 4a dd 3e 9e 1e 9e 3e 26 65 8d 3e
       0.37596026 0.4322114 0.30882734 0.27616233
000020 1f 68 84 3e 63 3c 8f 3e
       0.25860688 0.2797576

classifier.1.weight f4 [10, 90]
000000 80 b4 03 be 88 c3 0a be 16 c4 70 3c 51 6b 3d bf
       -0.12861824 -0.13551152 0.014695188 -0.73991877
000010 f8 2b ea bb 8d 05 0d 3e a0 4a 21 3c 01 f9 80 3e
       -0.0071463548 0.13771649 0.009844452 0.25189975
000020 c3 9d 73 3d 1d 21 97 bd 3b c9 95 bd 97 17 96 be
       0.059476625 -0.07379363 -0.07313772 -0.29314873
000030 c4 5f d6 be ba 9f 0b 3d fa dd cf bd ee 53 9a be
       -0.41869938 0.034087874 -0.101497605 -0.30142158
000040 c6 b7 1c be 1a a3 59 be 90 78 29 3e a1 61 a0 3e
       -0.15304479 -0.21253625 0.16549897 0.31324485
000050 29 29 5a bd b7 a1 4d be c6 ce 3c be 53 ea d7 be
       -0.05326191 -0.2008122 -0.18438253 -0.42170963
000060 06 f1 5c bd c8 e1 a1 3d 7f ed 93 3e c4 ce e2 bd
       -0.053940795 0.079043925 0.28892133 -0.11074594
000070 46 51 19 3e bb 37 1d be 80 b0 87 be 71 d2 9d 3e
       0.1497241 -0.1535329 -0.26501846 0.30824617
000080 ec a2 28 3d d8 94 1a 3e b4 56 ba be 15 bd 91 3e
       0.041171 0.15095842 -0.36394274 0.2846457
000090 dd 45 8b bd 33 e3 bc bd 73 06 6f bd 8d 67 22 bf
       -0.06800435 -0.09223022 -0.05835576 -0.63439256
0000a0 a5 37 24 bd c0 be 5e bd ca b3 2b 3e a3 8b 38 3c
       -0.04009213 -0.054381132 0.16767803 0.011263761
0000b0 54 88 5e 3d fc d8 0a be 45 bf 7b bd 3a 8e 64 3e
       0.05432923 -0.13559335 -0.061461706 0.2231988
0000c0 ad 94 b6 bd 62 5c 31 be c0 f3 b8 be df 4e c9 3d
       -0.089150764 -0.17320397 -0.36123466 0.098294966
0000d0 0e 74 80 3e 4d 4f 04 bf 5d 40 49 bd 1e 6d 30 be
       0.25088543 -0.51683503 -0.049133647 -0.17229125
0000e0 1f a0 a3 3d f4 4e 32 bd 2a fe 23 be bb 34 ee 3d
       0.07989525 -0.043532327 -0.16014925 0.11631151
0000f0 5f 58 2a 3e a8 4a 08 be 77 16 8d 3e d8 60 bc bc
       0.16635273 -0.13309729 0.27556202 -0.022995397
000100 f7 88 03 3e 17 54 84 be 72 e9 17 be ea fc 5e be
       0.12845217 -0.25845405 -0.14835146 -0.21776167
000110 f7 4a 7b 3e 92 5e 23 3e 4b 15 36 3d 79 a7 f7 3d
       0.24540316 0.15954044 0.0444539 0.1209249
000120 b4 20 2b be d8 ae b8 bd 7e cd 54 bd 94 2f 52 3d
       -0.16711694 -0.09017724 -0.051953785 0.051314905
000130 2b 71 6e bc 72 0c e3 3d 73 81 ca bd e0 d5 8d bd
       -0.0145533485 0.11086358 -0.09887972 -0.06925559
000140 ef b5 17 be a1 4e c9 bd 5d f4 08 be 9b 7c 4f be
       -0.14815496 -0.098294504 -0.13374467 -0.20262377
000150 7e 1e f6 bd 1c 02 f0 3d 6b 74 ee bd 09 af 0e bd
       -0.12017535 0.11719152 -0.11643299 -0.034834895
000160 bd 85 17 3e 73 95 8d 3e 2d 18 06 3e 90 03 4e 3d
       0.14797111 0.27653083 0.1309516 0.050296366
000170 14 5c be bb 2a 35 84 bd b0 a2 11 3d 3f 30 60 be
       -0.0058093164 -0.06455453 0.03555554 -0.21893404
000180 01 7b 3e 3d 1a bf bf 3d 44 fe 0d 3e f9 9e 29 3e
       0.046504024 0.093626216 0.13866526 0.1656455
000190 fe cf 68 bd a1 59 8e 3e 62 74 79 3e fc 79 b0 3d
       -0.05683898 0.27802756 0.24360803 0.08617017
0001a0 63 e6 16 3e ef 64 65 3e ab 78 9e bd 92 d1 52 bd
       0.14736323 0.22401784 -0.07737859 -0.051469393
0001b0 59 12 81 3d a3 c2 30 be af a0 15 3e 8c dd 86 bd
       0.06302328 -0.17261748 0.14612077 -0.065852255
0001c0 a4 38 91 be d4 73 54 3d a3 4b 03 3c 96 3f 8f 3c
       -0.28363526 0.051868275 0.008013639 0.017486375
0001d0 bb 95 10 3e 25 0d d8 bc 68 bb 84 be a3 68 54 be
       0.14119618 -0.026373455 -0.2592423 -0.2074304
0001e0 1f 1a 08 be 38 64 71 be 71 e5 ac be ef b6 25 be
       -0.13291214 -0.23573387 -0.337688 -0.16183065
0001f0 bc 11 76 3d 79 c4 d5 bd 99 6e 85 bd d2 b5 b4 be
       0.060075507 -0.10437865 -0.065152355 -0.35294968
000200 25 7f 44 be 14 28 13 bd 47 bc 25 be 47 9e e0 bd
       -0.19189127 -0.035926893 -0.16185103 -0.10967689
000210 be 4a 86 be 68 50 19 3e 50 c9 85 bd 31 bf 0e 3d
       -0.262289 0.14972079 -0.06532538 0.034850303
000220 d3 a8 39 bd 76 29 cf 3d 33 95 82 be 09 56 e7 be
       -0.04532702 0.1011533 -0.25504455 -0.45182827
000230 de 65 5c 3e e7 4a 1a be 47 69 11 be 64 99 df 3e
       0.21523234 -0.15067635 -0.14200316 0.43671715
000240 b4 2b 56 3e ce 29 52 3d 6f c3 46 bd b1 95 f2 3d
       0.20915109 0.0513094 -0.048526224 0.118449576
000250 71 c6 ca 3e 84 9d 39 3e 54 9e 0d 3e 01 9e 11 3e
       0.39604524 0.18126494 0.13829929 0.1422043
000260 05 b8 c9 3d 27 a5 a4 3d 46 33 5e 3e 33 d4 44 3e
       0.09849552 0.08039313 0.21699247 0.19221573
000270 55 99 a2 be bf 93 80 bc d0 f5 ab be bf fd f9 bc
       -0.31757608 -0.01569545 -0.33585978 -0.030516503
000280 13 4b 0f 3e 2f 2e 98 bd 93 d0 90 3d 5f 9f 95 be
       0.13993482 -0.07430684 0.070710324 -0.29223153
000290 3d 75 b2 be 2f 7d b7 be b0 96 de be eb 29 c5 be
       -0.3485507 -0.35837695 -0.4347434 -0.38508543
0002a0 4f 0c 77 bd a9 56 25 3c c0 d2 16 be 07 53 41 3e
       -0.060314473 0.010091462 -0.14728832 0.18879329
0002b0 52 89 ca 3d 62 a2 67 3e e0 57 2b 3e 27 e0 b7 be
       0.09889473 0.22620538 0.1673274 -0.35913202
0002c0 b6 f6 86 3e de b1 1d 3c 7f 03 13 be 49 2f b5 3d
       0.263601 0.009624926 -0.14356802 0.088469096
0002d0 fd 48 86 3b 1f 71 0f 3e 7d cb de bb 18 e2 b5 3d
       0.0040980563 0.14007996 -0.00679916 0.088810146
0002e0 ff fd bc 3d 0d fb 3d bd 29 cb c6 3d 83 40 66 3e
       0.092281334 -0.046382 0.097067185 0.22485547
0002f0 55 5c 55 3e ef bb 54 3d 7a 68 5e 3c e0 c7 08 bd
       0.20836003 0.05193704 0.013574714 -0.03339374
000300 3d ba 4f be 31 3b d4 bd 6e b9 4d 3e 7b 08 8b be
       -0.20285888 -0.10362852 0.20090267 -0.27154908
000310 2f 35 22 be 49 f2 d8 be cd 58 a1 bd a5 5f 25 be
       -0.158406 -0.4237235 -0.078782655 -0.16149767
000320 86 6b 97 be b4 f8 a3 3e 47 3b 53 3e 76 ac 76 be
       -0.2957422 0.32025683 0.20628081 -0.24089226
000330 c2 0d da 3d 1e 01 f7 3d a4 f9 3e 3e b7 7b 1b 3e
       0.10647155 0.1206076 0.18649918 0.15183912
000340 ea aa d7 3c 45 ad 63 be f5 9f 53 bd 9b 9e f2 3c
       0.026326615 -0.22234066 -0.05166622 0.029616645
000350 42 f9 8b 3d dc 70 33 bd d1 64 4f 3e 58 01 3e 3e
       0.068346515 -0.043808803 0.20253302 0.185552
000360 98 ad d9 3d 09 d7 e8 3d 70 2b 80 bd ab 6a 37 be
       0.106288135 0.1136914 -0.06258285 -0.17911784
000370 64 2d 5c 3b 55 7d ed bc 45 02 d7 bd 7d c1 f2 3d
       0.003359639 -0.028990427 -0.1049848 0.11853311
000380 96 52 9f 3d 93 6d 89 3d 7e a8 cc 3c 91 5a a3 bb
       0.07779424 0.06710353 0.024982687 -0.0049851616
000390 38 d7 82 be 7b b9 37 be b7 a2 07 3e c0 02 5b 3d
       -0.25554824 -0.17941849 0.13245665 0.05346942
0003a0 0d ad e6 3d 2a 28 66 3e a9 df 92 be 41 25 da bd
       0.112634756 0.22476259 -0.28686264 -0.10651637
0003b0 6a 1d 71 bc d4 fb 37 bc 38 8c a0 bb 08 0f 4f 3e
       -0.0147164855 -0.011229474 -0.004899528 0.20220578
0003c0 13 43 34 3d b2 fd ab be 0e ee 04 bd 80 0c 0e be
       0.04400928 -0.33591992 -0.03245359 -0.13871956
0003d0 8d bf 7a bd 66 07 32 be 82 26 e9 bd 5c 31 83 be
       -0.061217833 -0.17385635 -0.11384298 -0.25623596
0003e0 8f 1a fd bd 50 c4 44 be 64 3b dd bd f8 05 b8 3e
       -0.12358581 -0.19215512 -0.108023435 0.35942054
0003f0 39 f3 60 3e e4 46 f1 bd 08 68 f3 3c 06 6c 96 3d
       0.21967782 -0.117810994 0.029712692 0.073448226

classifier.1.bias f4 [10]
000000 16 f9 62 bd 9a dd 63 3e 61 2f 2b bd 47 f7 0f be
       -0.055413328 0.22252503 -0.04179323 -0.14059173
000010 ab 08 e3 bb ac 71 7c bd 7f 41 05 bd e9 ef 0c 3e
       -0.0069285235 -0.061631843 -0.032533165 0.13763393
000020 ad 2d af 3d 8c 57 1e 3e
       0.08553634 0.15463084

exp_avg f4 [10, 1, 3, 3]
000000 a0 c9 a7 b8 a3 0b 28 ba a2 8f d1 b7 03 46 fb b9
       -8.000736e-05 -0.00064104254 -2.4981626e-05 -0.00047926613
000010 6a 43 89 ba fd 12 5e 37 13 d9 16 39 49 8c f5 39
       -0.0010472361 1.3236652e-05 0.00014385981 0.00046834562
000020 f8 f9 80 3a 15 8b c3 3a 5d c1 80 3a 23 cb 84 3a
       0.0009840121 0.0014918769 0.0009823252 0.001013134
000030 6c 25 e1 38 cd e9 15 39 04 10 dd b9 52 4b b8 39
       0.000107358064 0.00014296845 -0.00042164337 0.00035151333
000040 fb be 92 3a 20 a1 14 ba a7 e5 3c 3a 8f 7b 0f 3b
       0.0011195833 -0.00056697614 0.0007205852 0.0021893715
000050 bc b8 e3 3a 95 e9 53 39 80 55 3c 3a 81 ea ec b9
       0.0017373781 0.00020209544 0.00071843714 -0.00045188147
000060 c9 fa 6a 3a fc 5c 90 b9 3d b6 aa 39 13 ef dc bb
       0.00089637615 -0.000275351 0.00032560705 -0.006742367
000070 e2 4a 24 bb aa 52 db ba f6 5d 6f bb 1f 24 22 bb
       -0.0025069048 -0.001673301 -0.003652451 -0.0024740768
000080 53 67 51 ba 32 46 72 bb e2 5d 79 bb 88 2d 74 bb
       -0.0007988114 -0.003696811 -0.0038050343 -0.0037258584
000090 93 08 c7 ba a4 21 c4 ba b5 c9 3a ba 23 97 b2 ba
       -0.001518505 -0.0014963639 -0.00071253936 -0.0013625365
0000a0 22 5a 5b ba 2b 99 a5 39 72 c8 32 b8 45 e8 c3 39
       -0.0008367618 0.00031585371 -4.2625186e-05 0.00037366353
0000b0 16 ff 8d 3a 47 1f 84 3c 5f 19 6f 3c bd c9 38 3c
       0.0010833468 0.016128195 0.014593451 0.011278567
0000c0 94 04 17 3c 29 b4 b1 3b 37 6a d0 3b 50 c5 9e 3b
       0.0092174 0.005423088 0.006360318 0.004845299
0000d0 aa 36 48 3b 0a 36 e2 3b bf d2 e9 b9 34 81 84 ba
       0.003055016 0.0069034146 -0.0004459824 -0.0010109306
0000e0 79 32 57 ba 31 27 e8 b9 b8 9f 14 38 f0 a6 82 ba
       -0.000820912 -0.00044279688 3.54347e-05 -0.0009967964
0000f0 1b 43 3a ba 35 b2 ca b9 8e fa 4d ba 4a d6 96 3b
       -0.00071053364 -0.00038661217 -0.0007857465 0.004603182
000100 d8 c4 92 3b b8 64 80 3b 29 74 2d bb b4 85 4d ba
       0.004479032 0.0039182566 -0.0026466942 -0.0007840053
000110 47 e7 65 bb 70 67 d0 bb 92 99 41 bb 6a e9 9e bb
       -0.003508048 -0.006359987 -0.0029540998 -0.0048496025
000120 23 4f bd 39 c2 f8 77 3a 2a ee 24 39 cf bc 73 39
       0.0003610785 0.000945937 0.00015728982 0.00023244623
000130 56 73 f9 3a fc ec 22 3a 83 1f 03 3b 7e f2 36 3b
       0.0019031565 0.0006215123 0.0020007796 0.0027915533
000140 b7 9d c7 3a e8 ad dc 3a 39 c5 56 3b 8e da 2e ba
       0.0015229498 0.0016836496 0.0032771362 -0.00066701404
000150 0d 05 bb b9 41 73 11 3b d8 a0 43 38 4a 49 6e 3a
       -0.00035671183 0.002219394 4.664142e-05 0.00090899004
000160 82 dd 22 3a 76 72 f6 3a
       0.0006212817 0.0018802423

exp_avg_sq f4 [10, 1, 3, 3]
000000 af 28 0c 38 28 dc 1a 38 e6 89 58 38 26 f6 b3 37
       3.341649e-05 3.6921498e-05 5.162684e-05 2.1453085e-05
000010 dc 4f f5 37 8b dc 73 38 6b 6c 54 38 e7 f3 86 38
       2.9243463e-05 5.814111e-05 5.064571e-05 6.435048e-05
000020 32 9a b7 38 64 e4 f9 38 89 8e e1 38 9d ed e6 38
       8.754841e-05 0.00011915786 0.00010755385 0.000110115136
000030 25 3b ce 38 c7 41 dc 37 54 4e 4a 38 4d 2d c3 38
       9.833862e-05 2.6256674e-05 4.82335e-05 9.3067625e-05
000040 8f ca 55 38 e8 3a c9 38 b7 69 8f 39 f3 7f 53 3a
       5.0971805e-05 9.595399e-05 0.0002735385 0.0008068077
000050 2e bd c4 3a 57 5d 8e 38 d0 6d c2 39 7d 1d 91 3a
       0.0015009993 6.7884735e-05 0.0003708438 0.001107141
000060 d3 92 cc 38 3e 82 4f 39 b0 88 56 3a 91 b8 5b 3a
       9.754826e-05 0.00019789577 0.000818382 0.00083816895
000070 63 bd 25 3a 6c e6 1f 3a 8a c0 84 3a 33 13 5d 3a
       0.00063224713 0.0006099704 0.0010128182 0.0008433342
000080 0f 29 44 3a ed 69 77 3a 17 fa 65 3a e2 c9 42 3a
       0.0007482925 0.00094380864 0.0008772923 0.00074305956
000090 13 d8 a4 38 2e 83 bd 38 ab dd de 38 e2 d4 6e 38
       7.860376e-05 9.0366564e-05 0.00010627074 5.6941884e-05
0000a0 87 6d 2d 38 5e 57 86 38 5d c6 5a 38 79 91 b3 37
       4.134842e-05 6.405891e-05 5.215999e-05 2.1406204e-05
0000b0 a2 ff 4e 38 ae 2c c4 3a f7 65 9f 3a d6 d1 5d 3a
       4.9352304e-05 0.0014966929 0.0012161125 0.0008461749
0000c0 a7 e9 58 3a e2 4a ac 39 d8 6b 10 3a 2a 57 a6 39
       0.0008274563 0.00032862189 0.0005509234 0.0003172693
0000d0 f6 3c 09 3a 1e db f1 3a 44 ce 0d 3a 65 2d 94 39
       0.0005235219 0.0018452143 0.0005409459 0.0002826258
0000e0 dd c2 1b 3a 4f 8b 3d 3a 00 87 22 3a 04 d0 56 3a
       0.00059418177 0.00072305364 0.0006199926 0.0008194449
0000f0 ba 1e 61 3a 94 c3 3b 3a 9d 23 49 3a db f6 ae 3b
       0.00085876475 0.00071626273 0.00076728483 0.005339486
000100 a4 75 a8 3b 86 45 64 3b 2e a5 a6 3b ef 25 9b 3b
       0.005140977 0.0034831478 0.005085609 0.0047347466
000110 1a 4d 53 3b a3 96 98 3b 4e 18 73 3b 01 4e 85 3b
       0.0032242 0.004656629 0.0037093344 0.0040681367
000120 4a 17 af 39 f1 da d2 38 72 c3 e3 37 b0 d7 ce 39
       0.00033395953 0.00010054361 2.715152e-05 0.00039452082
000130 3a 6a 0c 39 58 bb 3a 38 92 83 d4 39 8a a4 63 39
       0.00013391013 4.4520333e-05 0.00040533819 0.00021709703
000140 27 91 d0 38 65 88 b4 3a 0f a7 a9 3a 44 f3 89 3a
       9.9452496e-05 0.0013773559 0.0012943464 0.0010524769
000150 df df ae 3a fa 21 93 3a 41 3e 5d 3a cd 1f 6e 3a
       0.0013341865 0.0011225336 0.00084397575 0.0009083718
000160 af a2 88 3a b6 d8 9b 3a
       0.001042446 0.0011890146
