mnist_model.pth (torch, 30576 bytes, 8 tensors)

layer1.0.weight f4 [10, 1, 3, 3]
000000 ff 10 c1 3e b8 c5 92 3d 61 20 3d bd ff c2 80 3d
       0.3770828 0.07166618 -0.046173457 0.062871926
000010 b4 0a 1e be a4 07 88 3e 5b 70 77 be d0 7b 99 be
       -0.1543377 0.2656833 -0.24163954 -0.29977274
000020 31 72 b2 be 28 a3 a3 be e5 bb a2 3e 71 5a 49 be
       -0.34852746 -0.31960416 0.31783977 -0.19663407
000030 cc 72 3e be 9e da 8b be 8d b5 dc 3d 9a bb 4b be
       -0.18598479 -0.2731523 0.107768156 -0.19895783
000040 62 64 89 3e 68 85 5d be 3d 56 61 3e 90 d5 8d be
       0.26834399 -0.21632922 0.22005554 -0.27701998
000050 05 71 81 be cf af 82 3d 7c 4c ab 3e 06 86 5f be
       -0.2528154 0.06381189 0.3345679 -0.2182847
000060 a8 52 0f 3e ea 1b 40 be 81 db 63 3e 6a b3 8b be
       0.13996375 -0.18760648 0.22251703 -0.2728532
000070 ab 56 e9 3d c0 9c 91 bd 17 84 92 be f3 24 c8 bd
       0.11393484 -0.07109976 -0.28616402 -0.097726725
000080 f6 30 b3 be 73 5f 7a be 02 53 95 be c8 b9 07 be
       -0.34998292 -0.24450473 -0.29164892 -0.13254464
000090 94 a3 ae 3e e4 66 a8 3e bd 40 b6 3e 4d 4f f0 3e
       0.34109175 0.32891 0.35596266 0.46935502
0000a0 38 f9 90 3e a8 75 f4 3e e8 0b ed bb 6e e8 0a be
       0.2831514 0.47746015 -0.0072340854 -0.13565227
0000b0 e3 d6 88 be 41 74 ea 3d 14 7b 6c bd b9 14 95 be
       -0.26726446 0.11447955 -0.057734564 -0.29117373
0000c0 02 80 fa 3d 43 1a c9 3d f4 ae ab 3d cf 0c 81 3e
       0.12231447 0.09819462 0.08382979 0.25205085
0000d0 4e 3b fd bd f0 22 2d 3e a7 3f 20 be 9d 42 36 bd
       -0.12364827 0.16907859 -0.15649281 -0.04449712
0000e0 6f 0e 32 be ef 8c 2f bd fc 5e a1 be f6 dd 62 3e
       -0.17388318 -0.042859014 -0.3151778 0.22154984
0000f0 d3 ce 9b 3e 62 85 54 3d cf 20 92 be c5 bf 1f 3e
       0.30431232 0.051885016 -0.28540656 0.15600498
000100 80 42 9a be 60 22 02 be 13 ea f6 bd 09 91 bc 3e
       -0.3012886 -0.12708426 -0.12056365 0.36829403
000110 a3 8d 8a 3e d8 01 b2 3e 2a 66 b9 3e 8f 50 05 3e
       0.27061185 0.34767032 0.36210757 0.13019012
000120 06 cf 3d 3f ce 8d 42 3f 0d 3a e6 3e c9 23 d1 3d
       0.7414402 0.75997627 0.44966164 0.102119036
000130 ce 5e 36 3f 31 21 11 3f f2 dd ba bd a1 c9 4d bc
       0.7123841 0.5669127 -0.09124364 -0.012560279
000140 03 ec f1 3e 66 1f a8 bb 6b ec 80 3e ef 97 38 3e
       0.47250375 -0.005130696 0.25180373 0.18026708
000150 07 09 8c bd ee 90 03 3e c5 61 a6 3e 1d 87 70 be
       -0.06837659 0.12848255 0.32496467 -0.23489042
000160 70 5a 87 3e 7e 59 1d be
       0.26436186 -0.1536617

layer1.0.bias f4 [10]
000000 d9 89 9e 3e aa e1 88 bc ac 5c 2f bc 52 94 01 3f
       0.30964544 -0.016709168 -0.010703247 0.50616944
000010 f9 64 3f 3e 4f d2 9a 3c f2 fd 5e be df be 9d 3e
       0.18690862 0.018899111 -0.2177656 0.30809686
000020 81 9f 07 3d 36 4e 10 be
       0.0331111 -0.14092335

layer1.2.weight f4 [10, 10, 3, 3]
000000 13 68 a8 3c 16 ea a3 3d 0f 60 45 3d fe e1 96 bd
       0.020557439 0.08003633 0.04818731 -0.07367323
000010 b0 80 67 3d 97 82 60 bc 05 48 59 bb bb 31 0c bd
       0.05651921 -0.01370301 -0.00331545 -0.034227114
000020 5b ca 8e 3d 0e ea 61 bd b6 6b 56 3d ac c4 87 bc
       0.0697219 -0.055154853 0.052348815 -0.016573273
000030 8e 40 59 3d 3f ed 7a bd 6a c2 99 bd 1c b6 8e bc
       0.05304008 -0.06126141 -0.07507785 -0.01742082
000040 40 3c 91 3a 5c 0d 92 3d ce 42 c3 bd fd b1 97 3c
       0.0011080578 0.07131454 -0.09534226 0.018517489
000050 4e 66 56 3c e7 99 9e b9 f5 a2 57 bd 11 74 62 bd
       0.013085915 -0.00030250775 -0.052645642 -0.05528647
000060 16 e3 95 bc d8 d8 61 3d 3e 21 cc 3d 60 32 a9 bd
       -0.01829676 0.05513844 0.09967278 -0.082615614
000070 11 1a ae 3d 20 a3 8b 3c 1a a0 b2 3d 09 d4 93 3d
       0.085010655 0.017045557 0.08721943 0.07218177
000080 47 44 65 bd 43 fa a6 3d 75 6e 49 bd 1d e7 44 bd
       -0.055973317 0.081532024 -0.049177606 -0.04807197
000090 f7 b7 a3 bd 7c ea 00 3c 0b b3 c4 bd 25 83 96 3d
       -0.07994073 0.007868405 -0.09604462 0.073492326
0000a0 a6 b4 6d 3d 23 ea 97 3d 43 c2 77 bd e9 f4 7f 3d
       0.058033608 0.07417705 -0.060487997 0.062489424
0000b0 b2 54 e0 bc a4 e7 1a bd 11 b8 4e bd d8 f4 3e bd
       -0.027384136 -0.037818566 -0.05046851 -0.04662022
0000c0 28 33 00 3d f8 4b a3 bd 09 f8 da 3c ff 48 99 3d
       0.031298786 -0.07973474 0.0267296 0.07484626
0000d0 b6 30 33 3d 3c 38 a5 3d 07 a6 42 3d f4 cd 0b bd
       0.043747626 0.080673665 0.047521617 -0.03413196
0000e0 56 4d 32 3d ce ba 87 bd df 41 29 3d d3 a7 9a bd
       0.043530785 -0.06627427 0.041322585 -0.07551541
0000f0 d7 53 0c 3c af 10 eb bc aa 34 9e b9 13 04 b9 3d
       0.008564911 -0.028694479 -0.00030175346 0.0903398
000100 d8 25 86 bd 5b 68 34 3d 4a f0 02 3d e2 05 e4 bc
       -0.06550187 0.044044834 0.03196744 -0.027834836
000110 7a 8f 8f ba 67 bb ca bd 33 8a 95 3d 9f cf 03 3c
       -0.0010952794 -0.098990254 0.0730175 0.008045106
000120 78 39 35 bd 21 9b f1 3c 6e f6 50 bd 7e 1d 7c bd
       -0.04424426 0.029492917 -0.051016264 -0.061551563
000130 87 f4 22 bd df 39 78 bd f4 2f 10 bd 6d a9 a2 bc
       -0.03978398 -0.060602065 -0.03520198 -0.01985618
000140 fd 97 c5 bd 75 fe c5 3d 75 f6 70 3d 2c 5b f8 3c
       -0.0964813 0.096676745 0.05882879 0.030316912
000150 fc a4 25 3c c4 8a 16 3d d8 72 41 bd de 9a 32 3d
       0.010110136 0.03675343 -0.047228664 0.043604724
000160 c4 0a 28 bd 8e 55 85 bd 1c 61 25 3d 3f 90 b5 3d
       -0.041025892 -0.06510459 0.040375814 0.088654034
000170 77 e5 5a bd ce 07 bd 3d 49 83 77 bd 35 be c9 bd
       -0.05344149 0.09230004 -0.060427938 -0.09850732
000180 4f 89 39 bd ea b1 13 bc 72 b7 ce 3d 96 23 1b bd
       -0.045296963 -0.009014586 0.10093583 -0.037875734
000190 30 0f 2b bd a2 67 f9 3c c8 9b bb 3c 84 41 fe 3c
       -0.04176253 0.030444924 0.02290143 0.0310371
0001a0 c6 4d 78 3d cb ef ab 3d 7c 36 8a bd 11 54 8a 3d
       0.060621046 0.08395346 -0.06748673 0.06754316
0001b0 3c 1a b1 bd 54 42 ea bc 75 76 a2 3d c2 76 c3 3d
       -0.08647582 -0.02859608 0.0793275 0.09544136
0001c0 ed 5c 20 bd c8 80 80 3d 47 11 18 3d 76 17 8f bd
       -0.03915112 0.06274563 0.037125852 -0.06986897
0001d0 4c 1b eb 3c c0 00 96 bc 7e a0 31 3c 0c 1d 97 bd
       0.02869954 -0.018310905 0.010841487 -0.07378587
0001e0 85 24 a9 3b b0 0b 37 bd 07 a0 58 3d 77 a5 c7 bd
       0.005161824 -0.04468888 0.05288699 -0.09748357
0001f0 01 03 80 3d e4 cc 9c 3d 3c c1 2d bd 90 b1 ba bd
       0.06250573 0.07656267 -0.04242061 -0.091158986
000200 82 8f 2d bc de 20 ce bb bc f2 b7 3d 77 56 76 bd
       -0.010593297 -0.006290539 0.08981845 -0.060141053
000210 4f 8b ca bd 4b ce c2 bd cf 27 32 3d 8e 9e a1 bd
       -0.09889852 -0.095120035 0.043494996 -0.0789157
000220 02 c9 e3 bc db d4 9d 3d 59 48 a8 bd 17 02 b5 bc
       -0.027805809 0.077066146 -0.08216924 -0.022095723
000230 5f 01 68 bd 84 9a 4e bd 1e 4a 13 bd bf 55 a5 bd
       -0.056641933 -0.050440326 -0.035959356 -0.080729954
000240 b4 51 9e 3c b6 1f 79 3d ae 03 be bd e7 51 3e bc
       0.019326068 0.060821258 -0.092780456 -0.011616207
000250 fe cc 24 bd 41 84 d4 bd 44 88 d0 3d c4 fc be 3c
       -0.04023456 -0.10376788 0.101822406 0.023313887
000260 00 ee 1c b9 fb 73 b2 bc 5f c0 83 3d 0c fa 4b bc
       -0.00014965981 -0.02178382 0.06433176 -0.012449753
000270 c0 ba 2c 3d 28 03 c5 3d dc 2c cb bd 90 b1 17 3d
       0.042170286 0.09619743 -0.099206656 0.03703457
000280 63 be 19 bd 7f ca 2a 3c 60 a2 d2 3c 0c 6a 1f bc
       -0.037535083 0.010424255 0.025712192 -0.009729873
000290 40 6b cb bc 87 73 74 bd 0c 48 09 bd 78 95 9b bd
       -0.024831414 -0.059680488 -0.033515975 -0.07596868
0002a0 a1 46 13 bd a8 3d 97 bc 9d 6e 53 3d c4 8f cd 3c
       -0.03595603 -0.018462017 0.05161916 0.025092967
0002b0 99 91 98 3d d0 94 20 3b b3 6d d6 bd 0e 6d f1 bc
       0.074496455 0.0024502762 -0.10470142 -0.029470947
0002c0 64 bb c1 3d 40 89 0b 3c 7f 12 ac 3c b4 f8 b0 3d
       0.0945957 0.00851661 0.021004913 0.08641186
0002d0 00 fd 9b 3d 42 6a de 3c dd 4d 94 3d 8e 93 9a bd
       0.07616615 0.027150277 0.07241414 -0.07547675
0002e0 4c 01 b4 3d 72 f1 95 3c 68 e9 bc bd 69 6c 90 3d
       0.0878931 0.018303607 -0.09224206 0.070519276
0002f0 4a f3 54 3d 53 c4 cc bd 4a 5c fd 3c 47 8a d9 3c
       0.05198983 -0.099983834 0.030927796 0.026555194
000300 97 e1 9e bb 41 78 c7 bd 17 37 d7 3d 8e d5 bf 3d
       -0.0048486697 -0.097397335 0.105085544 0.09366904
000310 49 89 cc bd 02 39 4a bd 8c 0b 3d bd 45 ea 69 bd
       -0.099871226 -0.049370773 -0.04615359 -0.057108182
000320 a4 fa df ba 19 16 cf 3d 3d 6b 26 bd c9 1f b0 3d
       -0.0017088247 0.10111637 -0.040629614 0.085998125
000330 74 c3 02 bd 5b 2a 13 3d aa 16 2f bd 98 87 73 3c
       -0.03192468 0.035929065 -0.042746224 0.014863871
000340 d9 f3 96 3d 38 ff 80 3d ed 5a 9e 3d d0 62 e6 bd
       0.07370729 0.06298679 0.077321865 -0.11249316
000350 2f 7c a5 3d 16 f1 15 bd b4 fb 48 bd 62 fa bb bd
       0.08080327 -0.03660687 -0.049068168 -0.09178616
000360 41 72 6c bd e0 61 c2 3d 57 a4 aa bd 21 d9 a7 bd
       -0.05772615 0.094913244 -0.083321266 -0.08195711
000370 29 6d 19 bd 3c d4 e5 bc 9c f4 a1 3d 92 c1 a2 bd
       -0.03745762 -0.028055303 0.07907984 -0.07947077
000380 0f 58 c4 bd 7a 9d d2 bd 3f ad bc bc 12 a1 4b bd
       -0.09587108 -0.102839425 -0.023031829 -0.049714155
000390 c9 f3 c8 3b 1b 9b 62 3d b7 26 b9 bd 4b 64 80 3d
       0.006132577 0.0553237 -0.090405874 0.06269129
0003a0 68 9e bb bc c6 43 a7 bd 3c 97 32 bd 12 c0 88 3c
       -0.022902682 -0.08167224 -0.04360126 0.016693149
0003b0 e4 0f 57 bb 11 99 c5 3c 86 ad 93 bd 43 10 cc bd
       -0.0032815868 0.02412084 -0.07210831 -0.09964039
0003c0 90 14 74 3c aa f3 ae bb 15 83 b9 bd 7d c1 85 3d
       0.014897481 -0.0053391056 -0.09058205 0.065310456
0003d0 4a 7b 33 3c 79 5d 09 bd 4a c6 2d bd d9 ba b2 3d
       0.010954687 -0.033536408 -0.04242543 0.087270446
0003e0 69 b9 86 bd a9 30 c6 bd 1a ff 60 3d a6 26 ab bd
       -0.06578333 -0.0967725 0.054930784 -0.08356981
0003f0 d1 38 7c bd 24 77 f9 3c 51 94 ae bd da 89 ba 3c
       -0.06157762 0.030452318 -0.08524383 0.02277081

layer1.2.bias f4 [10]
000000 1e 6f 96 bd 70 c5 c8 bd d0 da 9b bd ab b7 aa bd
       -0.07345413 -0.09803283 -0.076100945 -0.08335813
000010 4e a6 32 3e f5 43 d0 3c da 1c 54 3d 22 f7 8d bd
       0.17446253 0.02542303 0.051785327 -0.069319025
000020 27 40 ff 3b cd d0 c8 bb
       0.00778963 -0.0061284066

layer2.0.weight f4 [10, 10, 3, 3]
000000 37 77 81 bd 42 0e ca bd 02 35 d0 bd 6d f0 dc bc
       -0.063215666 -0.09866001 -0.101663604 -0.026970113
000010 e6 59 c2 3d ae 82 b3 3c c4 70 9f bd 20 f3 c0 3d
       0.09489803 0.021912899 -0.0778518 0.094213724
000020 3e 88 9b 3d 40 a2 cb ba c6 85 ab bd fd b6 95 bc
       0.075943455 -0.0015536025 -0.08375125 -0.018275732
000030 c6 49 25 3d 2a 6c 06 3d 0d de d4 bd ae e4 1e bd
       0.04035356 0.032817997 -0.10393915 -0.038792305
000040 5e 94 00 3d e0 46 25 bb 17 f9 97 3d d0 dd b2 bc
       0.031391494 -0.0025219247 0.07420557 -0.021834284
000050 d9 51 8f bd e1 15 90 bd 61 df 0e bd 7b 97 d4 3d
       -0.06998033 -0.07035423 -0.034881 0.10380455
000060 2e 66 0e 3c 05 c8 cf 3d 1d 8c ba bd 50 47 1e 3c
       0.008691354 0.101455726 -0.09108756 0.009660557
000070 13 92 ce 3d 14 9d 87 bd 0d 91 cf bd 68 c6 1b bd
       0.10086455 -0.06621757 -0.10135088 -0.03803101
000080 7f 94 b7 3d 28 d5 4c bc 67 8d 57 bd 9e 40 67 bd
       0.0896387 -0.012501992 -0.052625086 -0.056458108
000090 8a 8f 63 bd 1d ae 1c be 36 87 c5 bd 90 81 15 bd
       -0.05555681 -0.15300794 -0.0964493 -0.036500514
0000a0 cb 99 e6 bc 3a 63 b3 bd 69 c3 0e 3b 23 97 8c 3c
       -0.028149506 -0.0875916 0.0021783954 0.017161911
0000b0 e4 97 b1 3c 1a d9 51 bd 19 8a 08 be 3e 05 c0 bd
       0.021678872 -0.051232435 -0.1333393 -0.09376
0000c0 df 11 1f 3e f5 29 45 3e c8 48 b5 3d 0e d9 2b 3d
       0.15534161 0.19254287 0.088517725 0.041955046
0000d0 2c 75 d6 3d 1b 96 28 3e de 5a 99 3c 0f 5b 01 3e
       0.104715675 0.1646351 0.018720087 0.12632392
0000e0 cb fa 81 bd 1d ca 99 bb 96 74 c3 3d 44 61 a7 3d
       -0.06346663 -0.0046932832 0.095437214 0.08172849
0000f0 e3 45 89 bd 48 e0 a9 3d a8 4f 84 bc 10 8d 5e 3d
       -0.06702783 0.082947314 -0.016151264 0.054333746
000100 89 1d d5 3d 38 db 0b 3e bd 73 34 3d de a5 e2 3c
       0.10406024 0.13657844 0.04405569 0.027666982
000110 7d 59 3b 3d f6 5c 1e 3e e8 e0 18 bd f7 3b 60 3d
       0.04573964 0.1546515 -0.037323862 0.054744687
000120 dd f3 01 bd 04 e8 f1 be 06 54 ad be 79 04 a8 3e
       -0.031726707 -0.47247326 -0.33853167 0.32815912
000130 15 1a 8a 3e 69 3e c7 bd 7a f8 a0 bd 83 a8 80 3d
       0.26973024 -0.09728701 -0.07859893 0.06282141
000140 d6 66 40 3e 18 19 18 bd b1 d6 6c 3d 0e ca 06 bd
       0.18789229 -0.037133306 0.057821933 -0.032907538
000150 10 a2 a6 bc da 1d 77 bd f4 0b 9b 3d e7 e5 1f 3b
       -0.02034095 -0.060331203 0.07570639 0.0024398507
000160 5b 22 b5 bc d3 b3 a2 3d 4a 95 1d 3c d6 c7 64 bd
       -0.022111109 0.07944455 0.009618113 -0.05585464
000170 0f 08 1c 3d 92 86 e1 3d d3 be 68 bd 20 1d 36 3d
       0.038093623 0.110119954 -0.05682261 0.04446137
000180 63 c1 9f 3d 7f 96 be 3a 10 30 94 3c 11 c0 64 bd
       0.078005575 0.0014540701 0.018089324 -0.05584723
000190 7f 1d 38 bd 64 68 6d 3d 79 72 a0 3d c0 9c 26 bc
       -0.044950005 0.057960883 0.07834334 -0.010169208
0001a0 1b 8c e2 bb 7f 47 81 bd 12 3b 8a 3c 42 3f 51 3d
       -0.0069136745 -0.06312465 0.01687387 0.051085718
0001b0 95 15 bb 3d 62 9a 99 3d e4 79 5f 3d 7c 5f a2 3d
       0.09134976 0.07500149 0.054559603 0.079283684
0001c0 6e 9c 51 3d 93 72 8e bd 3f d0 c9 bd 7b b8 c4 bd
       0.051174574 -0.06955447 -0.09854173 -0.09605499
0001d0 4a 14 92 3c 5e 96 47 bd 2f 4d 91 3d e9 66 cc bd
       0.01783194 -0.048727386 0.070948 -0.09980566
0001e0 db 62 8b bd 31 2e 5f bd ef ed 93 bd 7e ab c8 3d
       -0.068059646 -0.05448741 -0.072231166 0.097983345
0001f0 b5 69 58 bd 87 24 5f 3c 2d 87 e2 3d 07 68 64 bb
       -0.052835185 0.013619549 0.11060939 -0.0034852044
000200 7e 60 53 3d ee fe a3 3d 45 41 44 3d ce 43 8c 3d
       0.051605694 0.08007608 0.04791381 0.0684887
000210 81 1e d0 3d 4a 0f b2 3d 3e 5a 00 3e e8 f0 a9 bd
       0.10162068 0.086943224 0.12534425 -0.08297902
000220 70 5f 05 bd b2 5a 47 3d 9b 97 18 bd 74 57 0b 3a
       -0.03256172 0.04867048 -0.037253957 0.0005315461
000230 df 3a 8f 3c 51 54 33 3d 95 f8 9a bd 75 d9 e1 3d
       0.017484127 0.043781582 -0.075669445 0.11027805
000240 8c 57 19 3d 3a e8 1e bc 83 db d2 3d 19 b5 c3 3b
       0.037437007 -0.009698922 0.10295775 0.0059725163
000250 7b bf 03 3d 0a b9 79 3d 3e d4 cd 3d 17 dd 57 b8
       0.032165032 0.060967483 0.100502476 -5.14659e-05
000260 f4 94 83 bd 13 bf 0e 3d e3 10 5e bd 24 72 8d bd
       -0.06424895 0.03485019 -0.054215323 -0.06906536
000270 23 ab 57 3d 33 29 95 bd 80 ab 44 3d a6 83 13 3d
       0.052653443 -0.07283249 0.048015118 0.03601422
000280 04 69 39 bc 2b ca aa 3d ab 7d de bd bc f1 a5 bc
       -0.011316542 0.08339342 -0.10863813 -0.02025687
000290 8f 66 ff 3d 20 c7 d8 bc 1b 02 47 3d 20 8a ed bd
       0.124707334 -0.026462138 0.048585992 -0.11598611
0002a0 e4 bd 1b bd e1 f1 d7 bd 20 86 69 bd 19 64 2d 3c
       -0.03802289 -0.105441816 -0.057012677 0.010582947
0002b0 0e a8 7f bd 0e 08 d4 3d 57 db 2e bc 03 50 a0 bc
       -0.06241613 0.10353099 -0.010672412 -0.019569403
0002c0 58 97 a7 3d ac f5 d4 bc 2f 29 36 3d 66 96 22 bd
       0.081831634 -0.025996052 0.04447287 -0.039694212
0002d0 6d aa d1 3d b6 f7 7e 3c e6 a7 a9 bd b2 b7 b5 bd
       0.10237584 0.015561989 -0.08283977 -0.08872928
0002e0 e6 02 d3 3d 37 c5 d2 3c 60 1b be bc a5 3e b4 bd
       0.10303287 0.025728805 -0.023206413 -0.08801011
0002f0 b8 36 2a 3c 90 f8 d5 3d b0 a5 19 bc 7a 7c 6a bd
       0.0103890225 0.104478 -0.009377882 -0.057247616
000300 b4 80 aa bd 5a 06 69 3d 54 60 eb bc 15 4e 6e bd
       -0.083253294 0.056890823 -0.028732456 -0.058179934
000310 8f 5b fa ba e2 0b 16 3d e7 cd 6f bc 71 76 65 ba
       -0.0019100773 0.036632426 -0.014636493 -0.0008753306
000320 43 6c c8 bd 59 38 ca 3d 80 d2 91 bd 6d 69 1b 3d
       -0.09786274 0.09874029 -0.07120228 0.03794234
000330 b3 eb af 3d ee 1d b8 3c 01 40 cf 3d 3e e1 b0 3d
       0.08589878 0.02247521 0.1011963 0.086367115
000340 70 67 cf 3d b5 49 06 3d d4 df 74 3c 62 37 31 3d
       0.10127151 0.032785136 0.014945943 0.043265708
000350 87 cf cf 3c fd c9 98 bd 00 d1 1a 3b 67 27 8c bd
       0.025367511 -0.07460401 0.002362311 -0.06843453
000360 1f 83 96 bc ec 9f ad 3d fb a4 1f be 93 99 99 3d
       -0.01837307 0.08477768 -0.15590279 0.07499995
000370 7f 61 38 3d 49 d5 b8 3c 68 aa 06 3e c6 18 a4 bc
       0.045014855 0.02256264 0.13150942 -0.020031344
000380 9c 0a 5f bd f6 a7 fe 3d 72 23 9d bd 04 e5 82 bd
       -0.054453477 0.1243438 -0.07672776 -0.063913375
000390 2c 9e 56 bc c5 7a a6 bd fe 84 09 3d 66 6a 30 3e
       -0.013099235 -0.08128885 0.033574097 0.17228088
0003a0 cc e1 0e bd 29 c6 42 3d c2 c0 3d bd d5 26 3f bd
       -0.034883305 0.04755226 -0.046326406 -0.046667892
0003b0 ec bc 9f 3d 2d 14 1d bc 9f 7e 1d bd 32 46 04 3b
       0.07799706 -0.00958733 -0.038450833 0.0020183441
0003c0 15 0c 92 3d 2d 94 91 3d 94 d1 9a bd 95 ba b3 bd
       0.07131211 0.071083404 -0.07559505 -0.08775822
0003d0 5c 76 bc bd 7b 89 e9 bd e3 5e 20 3d f8 ba 93 bd
       -0.09202263 -0.114031754 0.03915299 -0.07213396
0003e0 c1 bc bc bd 97 23 b8 ba 05 58 e3 bd 10 93 ce 3d
       -0.092156895 -0.0014048693 -0.11100773 0.10086644
0003f0 eb 45 99 3e 1c 9d 33 be 0d c7 a9 be 41 2f ca 3e
       0.29936156 -0.17540401 -0.33159676 0.39489177

layer2.0.bias f4 [10]
000000 5a 38 09 be da 88 f0 3d d4 c7 5f 3d 13 c8 c2 bc
       -0.13400403 0.11744852 0.05463393 -0.023777043
000010 48 76 88 bd 04 4c a6 bd 4c 16 db bd e6 4d 84 bc
       -0.06663185 -0.081199676 -0.10697612 -0.016150426
000020 41 2b 1a bd a3 b6 05 bb
       -0.037638906 -0.002040305

classifier.1.weight f4 [10, 490]
000000 c4 cf 54 bc 27 0e 04 bd 8a 6c eb 3b ea 5f 08 bd
       -0.012988988 -0.03224006 0.0071845697 -0.033294596
000010 b4 63 37 ba 6a 95 d3 3c 9e b3 d4 3c e5 ec 9a 3a
       -0.0006995753 0.025828082 0.025964554 0.0011819868
000020 e4 e5 30 3c a2 27 09 3b e4 b8 9a 3d 86 7c 9e 3d
       0.010796998 0.0020928164 0.07554796 0.07738595
000030 6c da f8 bb 8a 30 3c 3d 7a 20 06 bd 79 dd 92 bc
       -0.0075943973 0.045944728 -0.032745816 -0.017927872
000040 53 fa 12 3d ac 70 9b 3d 56 df 9b 3c 29 d9 06 3d
       0.03588326 0.0758985 0.019027393 0.032921944
000050 cb 69 1b 3d bd 26 0a bd 09 ad 9b bd 09 98 98 bd
       0.03794269 -0.03372835 -0.07601363 -0.074508734
000060 07 f8 66 be ed 44 03 be 27 37 0d bd bd 6d 12 3d
       -0.22555552 -0.12819262 -0.034476425 0.035749186
000070 7a 45 18 bd 23 c4 e0 bd 13 da 92 bd 52 c4 d4 3c
       -0.037175633 -0.1097491 -0.071705006 0.02597252
000080 aa d3 0b bd 26 a2 e7 bd 96 64 3b bc df 75 74 bd
       -0.034137405 -0.11310224 -0.011437556 -0.059682723
000090 06 5d 5c bc c5 7e c7 3d 69 2e 1c 3e 9d d7 7c bd
       -0.013449913 0.09740976 0.15252079 -0.061729062
0000a0 70 2b 28 bc d6 8e 48 bc db 3a 0b bd 4b d8 04 3c
       -0.010264263 -0.012241086 -0.033991676 0.008108209
0000b0 de 21 dd bc 28 12 b0 bc 88 ac e0 bb b3 32 54 bc
       -0.026993688 -0.021493033 -0.006856505 -0.012951541
0000c0 c9 af b6 3b 18 e8 ea bb 5f ba 2f 3c b3 c0 b1 3c
       0.0055751544 -0.007168781 0.010725587 0.021698331
0000d0 ce b6 15 3d 8d ff 2e ba 7e 77 26 bd 17 36 3a bd
       0.03655129 -0.0006675653 -0.0406413 -0.04546174
0000e0 bf 51 cc 3c 18 ae af bc 6e 93 20 bd b1 de 57 ba
       0.024941323 -0.021445319 -0.0392031 -0.0008234783
0000f0 b1 50 21 3c e2 0a 7e 3c dd 49 31 3d 7b d3 9a 3c
       0.0098458985 0.015505524 0.043283332 0.01889967
000100 f5 cf 06 3d 0c 95 18 bd b7 34 45 3d 23 38 05 bc
       0.032913167 -0.037251517 0.048145976 -0.00813106
000110 0c f8 67 3b bf 4a 1a 3d fd 02 07 bd 13 c2 15 bd
       0.003539565 0.03766894 -0.032961834 -0.036562037
000120 be da 0a bd fb 0a 3b bc da fb 6d 3c 54 cd 30 bd
       -0.033900015 -0.011416192 0.014525378 -0.043164566
000130 05 93 0b 3c 68 4e 49 bd 35 93 4a bc 21 47 4a bd
       0.008518939 -0.04914704 -0.012364198 -0.04938424
000140 23 ee c3 bb 9f 29 3c 3c 02 a2 46 3c 03 ca 37 bd
       -0.005979316 0.011484533 0.012123587 -0.044870388
000150 b3 72 88 3c a7 f7 62 bc 79 fa 16 bd b7 83 ea bc
       0.016656255 -0.01385299 -0.036859963 -0.02862726
000160 12 be 13 bd fa 4c e7 bc 1f fa dd 3c 51 fa 18 bd
       -0.036069937 -0.028234947 0.027096806 -0.037348095
000170 61 ae 40 3c a3 8a e7 3c 51 cf 4e 3c a0 9f 0f bd
       0.011760325 0.02826435 0.01262267 -0.03506434
000180 b3 13 29 3b 6e 72 24 3d f4 f7 3b bd 65 31 28 bd
       0.0025799095 0.04014819 -0.045890763 -0.04106273
000190 59 fd d5 bc 9f e3 a9 bc 33 74 aa bb a3 68 80 bc
       -0.026121782 -0.020738421 -0.0052018403 -0.015674895
0001a0 7b de d1 bb 75 3d c4 bc 21 81 bf bb 07 47 87 3c
       -0.0064046956 -0.023955086 -0.005844251 0.01651336
0001b0 fb b7 48 bb 89 73 56 bc 91 27 c1 3b 78 03 09 3d
       -0.003062724 -0.013089069 0.0058946093 0.033450574
0001c0 0a d1 47 3c 66 fc 1b bd 02 fc 94 bc 87 2c 2f 3c
       0.012195835 -0.038082503 -0.018186573 0.0106917685
0001d0 bc f5 f5 3c 28 c5 ea 3c 33 9d 35 3d f6 4f 83 3c
       0.030024402 0.028658465 0.04433937 0.01602934
0001e0 28 58 0e bb 00 52 87 3d 2a 4b c2 3d 7a 7d bd bc
       -0.0021720026 0.06607437 0.09486993 -0.023131121
0001f0 b4 48 2f bc b9 46 41 3c 62 dd 67 39 28 93 cc bb
       -0.010698486 0.011796647 0.00022112348 -0.0062431283
000200 ab e9 84 3d d9 b9 91 3d 55 00 cd bc 1e 71 7b 3d
       0.06489881 0.07115526 -0.025024572 0.061387174
000210 6b eb 28 3c 29 c1 d0 bb 53 45 0f bd af 6e 76 3d
       0.010310034 -0.0063706827 -0.034978222 0.06016415
000220 3c c8 c0 bd 8f eb 33 bd a6 a1 6d bd dc a3 d8 bc
       -0.09413192 -0.043925818 -0.058015488 -0.026445322
000230 6e 5a 2b bd 33 e8 0f bb 39 49 ce bb 97 54 fa bc
       -0.041834287 -0.002195847 -0.00629535 -0.030557914
000240 63 8a b7 bd 41 65 e8 bc 32 a0 10 bd f3 aa aa ba
       -0.08961942 -0.028368594 -0.035309024 -0.0013020918
000250 57 23 bd bb ee 08 c2 3b b8 7b b8 3c 5b 6e 2b bd
       -0.005772035 0.0059214747 0.022519931 -0.04185329
000260 42 d3 85 3c 7e 03 09 bd ab b7 06 3d f0 c2 2e 3b
       0.016336087 -0.033450596 0.032890003 0.0026666485
000270 23 ce af bc 36 ef 3d bd d7 ea 75 bd a4 cb cb bd
       -0.021460598 -0.046370707 -0.060038414 -0.09950951
000280 0d f5 43 bc 9c 6c 14 bd 91 06 b0 bb 4d 3b 57 bc
       -0.01196028 -0.03623639 -0.0053718765 -0.013136697
000290 bb 8e 21 bd 1e 2f 31 bd 7d ad c0 bd d4 46 27 bd
       -0.03944276 -0.043257825 -0.0940809 -0.04083903
0002a0 fc 0e fd bb 86 0e 6d bd e5 87 d5 3b f6 c8 45 bb
       -0.0077227335 -0.05787518 0.006516444 -0.0030179597
0002b0 22 77 bc bd 70 ca 1b bd 1a 8e 1f bd 09 c8 9d 3b
       -0.0920241 -0.038034856 -0.038953878 0.004815106
0002c0 a7 61 ca bc 70 92 76 bc ae f5 03 bd 9f d1 0b 3c
       -0.024704767 -0.015049562 -0.03221672 0.008533864
0002d0 a8 81 19 bc ea 7f 30 3d 23 9e 15 3d 29 5b 6d bb
       -0.009369291 0.04309074 0.036527764 -0.0036217666
0002e0 ca 43 d4 bc 8a 0e 72 3d d5 6d 8b 3d 77 3b 06 bd
       -0.02591123 0.059095897 0.06808058 -0.032771554
0002f0 db ee da bb 77 84 5f bc f3 08 52 bc 88 dd 60 bc
       -0.006681306 -0.013642422 -0.0128195165 -0.013724692
000300 8a 0c 58 ba 04 18 0f bc 23 3e 3e bd 3e 08 16 3d
       -0.00082416146 -0.008733753 -0.046445977 0.036628954
000310 45 a5 c8 3c 19 b4 0b bc b3 fb 81 3b 3b 58 1c 3d
       0.02449287 -0.008526825 0.0039667725 0.03817008
000320 3c 8b 0c 3d d9 c7 ef 3c 8a 04 23 3d de 5c 16 bc
       0.03431247 0.0292701 0.03979925 -0.009177415
000330 57 21 f6 ba 15 16 43 bd 0a 42 54 bc e2 77 e5 bc
       -0.0018778247 -0.04762848 -0.012955198 -0.028011266
000340 02 a3 a6 3c 2d 5b 18 3d b2 38 b7 bc df 25 e1 3b
       0.0203414 0.037196327 -0.022365902 0.0068709697
000350 40 72 67 bc 00 d7 b3 3c a5 d4 54 3d 0f c1 8d b9
       -0.01412636 0.021953106 0.051960606 -0.00027037456
000360 f9 01 94 bb b2 8a 2a 3d 31 a5 9c bd 7d e7 93 bc
       -0.0045168367 0.041636176 -0.07648695 -0.018054718
000370 ee b4 09 3d 98 fa 25 3d 8f e4 da 3c ab bd 14 bc
       0.033619814 0.040522188 0.026720313 -0.0090784235
000380 5c 07 23 bc 9c b6 8a bd a0 2d 4b 3d d0 f9 04 3c
       -0.009950485 -0.06773111 0.04960406 0.008116201
000390 32 1b 35 3d 10 07 5a bc 0b 40 04 bd ef 2f 97 3c
       0.04421539 -0.013307348 -0.03228764 0.018455474
0003a0 85 79 5e 3c f4 79 a7 3d ad fe 98 3c 53 f3 d2 3c
       0.013578777 0.081775576 0.018676126 0.025750792
0003b0 27 55 79 bc 3a e0 dc 3c 54 6c 25 3d cb 0a 84 bc
       -0.015218056 0.026962388 0.040386513 -0.016118428
0003c0 ea 61 b7 3c 6a dd 08 bd e5 c4 b3 ba 7e e7 3c bc
       0.022385556 -0.033414282 -0.0013715295 -0.011529801
0003d0 25 a0 88 3b 71 18 dd 3c 54 6b 6b 3c 91 57 13 3d
       0.0041694813 0.026989194 0.014368851 0.03597218
0003e0 98 31 5d bd c1 ad 29 3d 18 01 dd 3c 9c 42 94 bc
       -0.054002374 0.04142547 0.02697806 -0.018098168
0003f0 86 de 0a bd fd d7 29 3d 78 c0 85 3c 94 04 4d 3d
       -0.03390362 0.041465748 0.016327128 0.050053194

classifier.1.bias f4 [10]
000000 f7 6c 0f 3b c3 e5 a4 3d 4b d0 fd bc 42 f3 05 bb
       0.0021885016 0.08051636 -0.03098311 -0.0020439182
000010 5e 49 4c 3d a2 d1 ac 3b c5 9c 33 bc 69 a4 db bc
       0.049874656 0.0052740136 -0.01096267 -0.026811795
000020 00 ac c7 bc 9b 40 03 3c
       -0.024374008 0.008011009
