model/checkpoints/model_checkpoint_modelv2.pth (torch, 89279 bytes, 76 tensors)

layer1.0.weight f4 [10, 1, 3, 3]
000000 2b 5f 5a 3e 27 63 06 3e f0 9a dc bd de b7 d1 3e
       0.21325366 0.13123761 -0.107717395 0.40960592
000010 d8 a1 46 be 50 23 8b 3d 57 c2 10 be 49 a1 65 3e
       -0.19397676 0.06793845 -0.14136635 0.22424807
000020 42 c1 b3 3e 89 83 cb be f1 b7 92 3e cb cd 06 bd
       0.35108382 -0.3974879 0.2865596 -0.032911103
000030 58 17 9f 3d 5b bb 52 3e f5 f0 7f 3d 7c 15 51 bd
       0.07768124 0.20579283 0.062485654 -0.05104588
000040 05 7c 7b 3e e8 23 06 be 97 bb ba be 84 cd be 3d
       0.24559028 -0.13099635 -0.36471245 0.09316543
000050 fb c3 97 bd da 25 a4 be b6 11 4c be e5 09 44 3e
       -0.07410427 -0.32060128 -0.19928631 0.191444
000060 14 99 bc bc 1f 4f 8a be 04 2e 0f be b3 f9 3e be
       -0.023022212 -0.2701349 -0.13982397 -0.1864994
000070 8e 3f a1 bb 98 52 b7 be 75 13 a1 3e 37 a3 71 be
       -0.0049209064 -0.35805202 0.31460157 -0.23597418
000080 92 40 b2 3e a0 0b 7c 3d ac cb d0 bc a3 35 8e 3e
       0.34814888 0.061534524 -0.025487743 0.27775297
000090 f6 75 0d 3d c8 c4 53 3e b5 61 90 3d ac cf 74 bd
       0.034536324 0.20680535 0.07049886 -0.059768364
0000a0 a2 f3 ea 3c 88 37 c1 bd 63 c9 34 3e eb c8 af 3e
       0.028680626 -0.0943442 0.17654948 0.34332976
0000b0 46 19 b1 3e 70 65 82 bc c1 48 5b 3e 1b 42 5e bd
       0.34589595 -0.01591751 0.21414472 -0.05426226
0000c0 08 c9 3b 3e 5b 85 83 be a0 b6 a1 be 30 fe 8d be
       0.18338406 -0.2568768 -0.31584644 -0.27732992
0000d0 8a 71 7b be be a3 b0 3e d2 3b ca 3d 10 82 f7 3d
       -0.2455503 0.34499925 0.09874691 0.12085354
0000e0 df 8f 5e 3e 32 ee 2c 3d b4 17 8b 3e 63 15 f2 bd
       0.2173457 0.04221935 0.27166522 -0.118204854
0000f0 59 4b 07 be f6 d0 b0 be 40 6d 17 3d dc 2d 06 be
       -0.13212337 -0.34534425 0.036969423 -0.13103431
000100 44 1c 9c 3d 12 4b 5e bd 2a 3e 8f 3e e1 30 28 be
       0.07622579 -0.05427081 0.27977115 -0.16424896
000110 e3 f0 97 be bf bc 50 be 85 af a9 3e 86 97 2b 3e
       -0.2967597 -0.20384501 0.33141723 0.1675702
000120 28 45 a4 3e 8f ad 9b be e4 d9 a5 be 77 7a aa be
       0.32084012 -0.30405852 -0.323928 -0.33296558
000130 e8 79 85 be 32 a3 56 3e b0 8b c9 3d dc 4a 84 3e
       -0.2606957 0.20960692 0.098410964 0.25838363
000140 35 1e 32 be f0 28 4c be e5 9c 01 3e 33 72 27 bd
       -0.17394336 -0.19937491 0.12657507 -0.040880393
000150 96 4c 9f 3d ac 65 c0 bd 28 c7 b8 3e 8a 10 94 be
       0.077782795 -0.09394392 0.36089444 -0.28918868
000160 44 46 15 be c3 9a 68 3e
       -0.14577585 0.22715287

layer1.0.bias f4 [10]
000000 5b f2 97 3e 85 c6 36 be 13 c2 a6 3e 23 9f db 3d
       0.2967709 -0.17849167 0.32569942 0.10723712
000010 76 31 a1 be 4a 8a 6b 3c 58 48 ab 3e 00 8e 86 bd
       -0.31483048 0.014376232 0.3345363 -0.06570053
000020 cf 9e 2e bd f4 e9 dd be
       -0.04263192 -0.43342555

layer1.1.weight f4 [10]
000000 38 4c 59 3f 24 f5 65 3f 98 b9 ae 3f 55 bf 7f 3f
       0.84881926 0.8982718 1.3650389 0.99901325
000010 d8 c7 31 3f 20 ef ad 3f 4b 5f 7c 3f 82 04 79 3f
       0.6944556 1.35886 0.98582906 0.97272503
000020 dc aa 8e 3f 96 b3 7d 3f
       1.1145892 0.9910215

layer1.1.bias f4 [10]
000000 97 bd 85 be 4f e9 70 be 42 8a 7b 3e 41 70 af 3d
       -0.26121208 -0.235265 0.2456446 0.085663326
000010 e6 a6 3c be c1 29 fa 3c ee 67 03 3e be e2 b8 bd
       -0.18423042 0.030537488 0.12832615 -0.09027623
000020 49 78 89 3d 2c 92 d2 bd
       0.06712396 -0.10281786

layer1.1.running_mean f4 [10]
000000 cd 84 d7 3e 41 e7 0f be 4b c7 39 3e c4 0a 07 3e
       0.42093506 -0.1405306 0.1814243 0.131877
000010 d1 a0 36 be ec 95 23 bd 05 b9 b8 3e c4 22 8b bd
       -0.17834784 -0.0399379 0.3607866 -0.067937404
000020 be cb d6 bd 5f ad da be
       -0.104880795 -0.42710397

layer1.1.running_var f4 [10]
000000 32 cf 73 3d 45 d3 8b 3c 35 52 ae 3d 7b fc 8d 3c
       0.05952377 0.017068515 0.085117735 0.017332306
000010 a9 52 9a 3d b3 20 c3 3c a4 c0 88 3c cb 12 b7 3b
       0.075352974 0.023819303 0.01669342 0.005586957
000020 e5 88 f4 3c a2 1b 89 3c
       0.029850433 0.01673681

layer1.3.weight f4 [10, 10, 3, 3]
000000 ef b8 ab bd 22 ab 77 bd d1 83 75 bd 1e 66 8e bd
       -0.08384883 -0.06046594 -0.059940163 -0.06953071
000010 d0 83 70 bd 8c f6 dd bd 0e 95 ed bd 47 7b d0 bd
       -0.058719456 -0.10838041 -0.116006956 -0.10179763
000020 b0 b9 f1 bd 14 6d 39 bd e4 39 06 3e 5e 94 27 bc
       -0.11802995 -0.04527004 0.13108021 -0.010228245
000030 89 d5 6a bd a4 16 43 be f9 d8 1c be 27 04 5b be
       -0.05733255 -0.19051605 -0.15317143 -0.21388303
000040 4f 9f d8 3a e1 fd ea bc 3f b1 81 bd 7b 98 6a be
       0.001652697 -0.028685512 -0.06332635 -0.22909729
000050 ff 11 ca bd 75 16 aa bd 03 6b be bd a3 60 d1 bd
       -0.09866714 -0.083050646 -0.092977546 -0.1022351
000060 48 5e 89 bd 66 65 79 bd 51 f9 2f bd 3a ea c0 bc
       -0.06707436 -0.060887717 -0.042962376 -0.023549188
000070 91 04 87 bd 13 1c 1e be 44 38 1e 3e fb ee 32 3e
       -0.06592668 -0.15440397 0.15451151 0.17473976
000080 f2 0a d7 bc 19 16 dc 3d 5d 83 73 bb cf 4c 35 3c
       -0.026250336 0.10746402 -0.0037157156 0.011065676
000090 22 90 00 be 72 6c 2f be 94 6a 00 3d bd 90 0b be
       -0.12554982 -0.17131212 0.03135164 -0.13629432
0000a0 4b 08 81 bd 52 a8 dc bd 25 37 d8 bc f7 8a e0 bd
       -0.0630041 -0.10774292 -0.026393482 -0.109640054
0000b0 1c 1e 37 bc 1c ef cc bd c1 e3 61 3d 7c d0 34 3e
       -0.011176612 -0.10006544 0.055148844 0.17657655
0000c0 b4 e1 7c 3e 9f 4a 1a 3e 98 bc 25 3e 78 99 7c 3e
       0.24695474 0.15067528 0.16185224 0.24667919
0000d0 9c 1b 5f 3d 30 45 6d be 1c 38 0c 3d f9 d8 7d bd
       0.05446969 -0.23170924 0.034233198 -0.0619745
0000e0 43 16 e0 3d 3f 3d c1 3d e2 2c 56 3d 28 3d 12 be
       0.10941746 0.0943551 0.052288897 -0.14281142
0000f0 31 8c 3a 3e 81 94 f9 bc fb 4a e6 bd 25 c1 1d 3c
       0.18217541 -0.03046632 -0.1124477 0.009628569
000100 09 9c 19 ba bf fc d2 3d 84 59 05 3b 2d af 09 3e
       -0.0005859738 0.10302114 0.0020347545 0.1344573
000110 0d 6b 15 3e ae 09 ff bd 5a ec 98 bd f8 ee 83 bd
       0.14591618 -0.12453018 -0.074669555 -0.06442064
000120 57 80 bd bc 39 35 0b be 16 70 f9 bd 77 1b 99 3c
       -0.023132486 -0.13594522 -0.12179582 0.018689854
000130 b3 97 ef bc e4 b0 1e 3e 7f c5 84 3d 84 cf 51 3d
       -0.02924714 0.15497166 0.06482982 0.051223293
000140 3f 0b 7a 3e f4 3d e2 3d 93 45 0e bc 90 83 44 be
       0.24418353 0.11046973 -0.00868358 -0.19190812
000150 38 db 1e 3d 3d d0 15 3e 9f 92 0d bd a4 4d a9 3c
       0.038783282 0.14630218 -0.034563657 0.020666905
000160 d1 cb 08 3e 44 11 e5 3d 46 36 b3 bb df 31 4b 3c
       0.13359 0.11184934 -0.0054691164 0.012402027
000170 72 d0 0d 3e 8c 83 bd 3c bc ca 20 bd bb 70 90 bb
       0.13849047 0.023134016 -0.039255843 -0.00440797
000180 31 9e 4a bd 32 92 dc bd bf cf 0e 3d a0 2e f0 3c
       -0.04946727 -0.10770072 0.03486609 0.029319108
000190 32 0d aa bc b2 ef 82 3d 42 b7 8f bd 33 1f 2d 3c
       -0.020758245 0.063933745 -0.070173755 0.0105665205
0001a0 7b e8 38 3d 01 e0 91 be 13 f5 4e be 0a ce 2b be
       0.045143586 -0.28491214 -0.20210676 -0.16777816
0001b0 e0 2f 1e 3e bd 50 ac 3d ac 71 16 3e 11 9f 70 3e
       0.1544795 0.08413837 0.146918 0.23498179
0001c0 ce 53 d6 3d 43 d9 a5 3d 11 75 21 3d 59 63 2e 3e
       0.10465203 0.0809808 0.039418284 0.17030086
0001d0 83 01 00 3e f9 29 3d bd 5a 44 d8 bb 3d 34 33 bd
       0.12500577 -0.046182606 -0.006599945 -0.04375099
0001e0 9a 1c 66 be 0e 0a 83 3d e6 b8 57 3a 33 d2 7e bd
       -0.22471848 0.06398402 0.0008229151 -0.06221218
0001f0 b1 cb 50 be 04 b8 3b bd 6a 38 83 3d 64 cb df 3d
       -0.20390202 -0.045829788 0.064072445 0.109274656
000200 ae 72 11 3d 28 1f 68 be 86 27 40 be 13 d5 c0 3a
       0.035509758 -0.22668135 -0.18765077 0.0014711939
000210 96 d1 3c 3d 21 19 e8 3d 36 46 cb 3d ba 3e ed bd
       0.046098314 0.11332918 0.09925501 -0.1158423
000220 68 a9 0a be f9 8b 9a 3c e3 b5 a0 be 5f 24 42 be
       -0.13541186 0.018865572 -0.3138877 -0.18959187
000230 6c d0 b9 bc 79 4b ef bd 70 64 26 3d 81 a1 81 3e
       -0.022682391 -0.11684317 0.04062313 0.2531853
000240 e1 de 66 bd d5 3c 32 bd 72 a1 0d bd 48 d5 96 3d
       -0.056364898 -0.043515045 -0.034577794 0.07364899
000250 06 26 42 3d 1c 8b 12 3e 7b f7 f6 bd a9 55 84 bd
       0.047399543 0.14310879 -0.12058922 -0.06461651
000260 6f f1 a9 3c a8 46 59 bd 44 e0 80 bc bd 69 d6 bd
       0.020745007 -0.0530459 -0.015731938 -0.10469387
000270 07 4e 81 3d c7 1e 31 3d 82 94 08 be a4 2b 29 3e
       0.06313711 0.043242242 -0.13337901 0.16520554
000280 80 90 d4 3d f3 d4 00 be af 4a b0 bd e2 18 1d be
       0.10379124 -0.12581234 -0.08607995 -0.15341523
000290 84 61 95 3c f7 a4 dc 3d 33 1c b6 3b ba b9 00 3d
       0.018234976 0.10773652 0.005557561 0.031427123
0002a0 27 bb 11 bd 10 17 8b bb 25 3d ce 3d bb 48 e0 3d
       -0.035578873 -0.0042446926 0.10070256 0.10951372
0002b0 e1 d2 17 3e 67 3c db 3d c6 1d 14 3e 13 08 2c 3d
       0.14826538 0.1070488 0.14464483 0.041999888
0002c0 3c b8 60 bd e7 0d 2c be d1 68 8d bd 80 5b 74 be
       -0.0548632 -0.16802178 -0.06904758 -0.2386303
0002d0 70 71 16 be e1 2e 52 bd 78 1e 6f 3d f4 40 f4 bd
       -0.1469171 -0.05131424 0.058378667 -0.11926451
0002e0 90 b8 c4 bd 82 cf 0e bd 4b 2a e7 bd 22 96 f0 3d
       -0.09605515 -0.034865864 -0.112873636 0.117473856
0002f0 e2 49 a1 3d 37 83 a7 bd 21 89 7c bd ad 79 22 3d
       0.0787542 -0.08179324 -0.061654214 0.03966682
000300 6c 59 bb bd db cf 02 be b1 2a 09 3d c7 c8 9f bc
       -0.09147915 -0.12774603 0.03348798 -0.019504918
000310 c2 68 9b bd a5 51 0c bb ca 2c 8e 3d c7 c4 27 3d
       -0.0758834 -0.0021410969 0.069421366 0.040959146
000320 13 31 a0 3d 6b d3 dd bd bd cb f6 bc c4 a1 36 bd
       0.0782186 -0.108313404 -0.030126447 -0.044587865
000330 a0 3c 2a be bf bb 24 3d 32 3a bf 3c fc 0c 66 bd
       -0.16624689 0.04021811 0.02334318 -0.056164727
000340 fb 2e 2d be f8 3e d4 bd 01 36 09 3e ee 53 55 3d
       -0.16912453 -0.10363573 0.13399507 0.052081995
000350 77 b8 33 be e8 fb df 3d 9a 73 21 3e 74 e9 df bc
       -0.17550837 0.10936719 0.15766755 -0.027332999
000360 c3 48 a8 3c 6c b6 e8 3d b9 d2 10 3d bf 24 d3 bb
       0.020542508 0.11362919 0.03535721 -0.0064435895
000370 96 b1 44 bd 99 53 87 3c 29 66 96 3d c9 64 5f 3d
       -0.04802092 0.016519355 0.07343704 0.054539476
000380 c0 e3 48 bd b9 91 30 be 6a e3 58 be 0d b2 24 be
       -0.049045324 -0.17243089 -0.21180502 -0.16083546
000390 61 4a 0f be 9b 90 5b be 69 92 2d bc 40 aa bc 3d
       -0.13993217 -0.21441881 -0.010593989 0.0921216
0003a0 6b 54 08 be 6f cc 9c bd da 2d d0 3d f0 01 cc 3d
       -0.13313453 -0.0765618 0.101649955 0.09961307
0003b0 59 cc 6b 3e e9 8b bd bd 53 bb ff bd 3b 00 14 bd
       0.23027171 -0.09255201 -0.12486901 -0.036133032
0003c0 03 05 35 bc a0 f8 02 be 35 a1 44 be c3 b0 d2 bc
       -0.011048558 -0.12790155 -0.1920212 -0.025719052
0003d0 b2 f5 7f bc 18 58 15 be 8d 99 5e 3e 13 8c 81 3a
       -0.015622543 -0.14584386 0.21738262 0.0009883664
0003e0 83 05 2f be 9c e2 b1 3d 6c 69 c0 3d e3 05 84 3d
       -0.17091946 0.086858004 0.093951076 0.06446435
0003f0 04 d8 ec 3d 8c 91 da 3d cb c9 ec bd 4e 14 95 bd
       0.11564639 0.10672292 -0.115619265 -0.072792634

layer1.3.bias f4 [10]
000000 86 e5 f6 3d 41 5c 2d bd 58 8d 1a be b2 f5 9c 3c
       0.12055497 -0.04232431 -0.15092981 0.019160125
000010 97 18 10 be 69 94 fb bd ce c3 34 be 08 8d e6 3d
       -0.1407188 -0.12284166 -0.17652819 0.11257368
000020 7f e1 35 be 4c fd d6 bb
       -0.17761801 -0.006560957

layer1.4.weight f4 [10]
000000 f4 14 81 3f 17 91 97 3f 10 ed 97 3f ce 8d 76 3f
       1.0084519 1.1841153 1.1869221 0.96310127
000010 ad b9 7e 3f 9b 5d 8b 3f 0c 60 6e 3f bb 40 80 3f
       0.9950207 1.0887941 0.93115306 1.0019754
000020 b0 47 45 3f 37 60 5f 3f
       0.7706251 0.8725619

layer1.4.bias f4 [10]
000000 4d b7 53 bd 80 8a 3e 3d d9 3e b1 bd b8 b2 88 3e
       -0.05168848 0.046518803 -0.08654565 0.26698852
000010 0f 41 cd bd fb 5f 41 bd 36 f0 d1 bd f9 41 7f bd
       -0.100221746 -0.047210675 -0.10250895 -0.062318776
000020 7f 90 43 be 0e 6f 80 3d
       -0.1909809 0.06271182

layer1.4.running_mean f4 [10]
000000 70 92 9b be 07 a2 e4 3d ff 56 8a bf 07 fe 2d bf
       -0.3038516 0.11163717 -1.0807799 -0.6796574
000010 c8 c6 a4 bf f9 c2 57 bf 66 6b e9 bd 99 ef 8f bf
       -1.2873163 -0.8428188 -0.11397438 -1.1244994
000020 ba 84 cd bf 87 47 9e bf
       -1.605613 -1.2365578

layer1.4.running_var f4 [10]
000000 02 5c 44 3f 02 3b 94 3f c3 67 48 3f 8b 5a 6a 3f
       0.7670289 1.1580508 0.7828333 0.9154441
000010 f5 02 f8 3e 7e 9c 04 3f 31 63 ae 3f d8 04 c6 3e
       0.48439756 0.5180129 1.3624021 0.3867557
000020 28 62 24 3f 38 7d 25 3f
       0.64212275 0.64644194

layer2.0.weight f4 [10, 10, 3, 3]
000000 0a 9d 00 be 37 38 2a be e7 58 1e be 2a c4 11 3e
       -0.12559906 -0.16623007 -0.15463601 0.14234987
000010 0a f5 3a 3e 2b 41 32 3d 42 7e 05 bd fb d3 e7 3c
       0.18257537 0.04351918 -0.032591112 0.028299322
000020 e8 c8 76 3d 95 77 74 3e ae b5 04 3e 1e c6 ff bd
       0.060250193 0.23873742 0.1295993 -0.1248896
000030 56 cc 8d bd 8c 03 65 be 04 37 5a be d7 f9 46 be
       -0.069237396 -0.22364634 -0.2131005 -0.19431244
000040 7d bb 96 3a 12 d0 6f be bc f8 98 3d 90 f2 2b 3e
       0.0011499968 -0.23419216 0.07469317 0.16791749
000050 7a 15 31 3e 63 ee 8c bc 50 e4 1d 3d e1 56 aa bd
       0.17293349 -0.017203515 0.038547814 -0.08317352
000060 a6 7f 55 be 82 f6 e6 bc 8c 67 a3 3d 50 4b e9 bd
       -0.20849475 -0.028193716 0.079787344 -0.11391318
000070 4a 1b 7b bd 71 3e 86 bd df 5a 1e be 69 e3 87 3d
       -0.06130532 -0.065548785 -0.15464352 0.06635172
000080 fb 23 a8 bc 95 55 1e 3e de 8f 31 3d 4e 24 31 bd
       -0.02052497 0.15462334 0.043350093 -0.043247513
000090 52 f2 a6 3d f8 05 f8 3d a5 35 e1 3d 4f 11 9e bd
       0.08151688 0.121105134 0.1099656 -0.07718145
0000a0 82 43 99 3d e8 65 22 3d 7b 94 a1 bd ff 87 e5 3d
       0.07483579 0.039647967 -0.078896485 0.1120758
0000b0 98 73 16 3e e9 b2 25 bc 2e 3b aa bd bd 6b 09 be
       0.14692533 -0.010113456 -0.08312069 -0.13420005
0000c0 f7 89 d5 bd aa 4c 28 be eb dd 62 bc 30 58 8d 3d
       -0.10426705 -0.16435495 -0.013846855 0.06901586
0000d0 db 36 56 3e 62 57 4f 3e ef 8e 8d 3d a0 fb 07 3e
       0.20919363 0.20248178 0.06912028 0.13279581
0000e0 ac 19 52 bd 5d eb 34 bd ed 5b b4 3d 83 c5 e5 3d
       -0.051294014 -0.044169772 0.08806596 0.11219313
0000f0 c5 2e 80 bd 19 c0 06 3d e5 3b 90 bc ae 31 19 3d
       -0.062589206 0.032898042 -0.017606685 0.037400894
000100 3b 22 9d 3c 5a 80 4e 3e 58 ae 26 be 3c 35 cc bd
       0.019181361 0.2016615 -0.16277444 -0.09971091
000110 12 44 ca bd 92 08 6c 3d 6d 2a 78 3d d0 bb b0 3d
       -0.09876265 0.05762536 0.060587335 0.086295724
000120 07 5a eb bd c5 4d b5 bd 45 13 b0 bd 24 df 22 3e
       -0.11491781 -0.08852724 -0.08597425 0.15905434
000130 8c 67 3c 3e 1b 34 1e 3d 80 8d a1 3d fd ad 41 3d
       0.18398875 0.03862391 0.07888317 0.04728507
000140 b9 3d 66 3d 99 ee b8 3c 3c f4 a8 bd 6f e2 f5 3c
       0.056211207 0.02257471 -0.08249709 0.030015199
000150 96 4f 92 3d 95 9f 14 3d b3 c2 fd bd 39 f7 d0 3d
       0.07144086 0.036285 -0.123906516 0.10203404
000160 47 dd 74 3d 73 fc 25 3d 72 81 11 3c d5 a6 e4 3b
       0.05978134 0.040523957 0.00888096 0.0069778957
000170 58 35 1e 3e d6 c9 25 3d ed 4b 9c 3c 5e 55 63 3d
       0.15450037 0.04047569 0.019079173 0.055501334
000180 14 6a a1 3d 7e e1 a5 3c 9c 59 f0 3d 03 97 f9 bd
       0.07881561 0.020249125 0.11735842 -0.12187006
000190 af 97 f6 bb d6 f3 42 be 5b d3 6f 3c 17 d7 49 3d
       -0.0075254063 -0.19038329 0.014637793 0.04927739
0001a0 25 cd 72 bc bd a4 10 3e 22 15 78 3c 66 61 ba 3c
       -0.014819418 0.14125343 0.015141757 0.022751521
0001b0 9a cf a2 bd 64 9b 81 bd fd 02 1a be 7e 64 b4 bd
       -0.07949753 -0.063284665 -0.15040202 -0.0880823
0001c0 96 e9 66 3d d6 df 36 be c5 87 0d 3e c6 25 9b bd
       0.05637511 -0.17858824 0.13821323 -0.07575564
0001d0 ef c6 93 3c 78 a1 0d 3e bd e2 b5 3d fe 79 ed 3d
       0.018039195 0.13831127 0.088811375 0.11595534
0001e0 b5 9c a0 3d b8 0c 25 3e 74 59 81 bc 8f 67 65 bd
       0.078423895 0.16118133 -0.015789725 -0.056006964
0001f0 4e e1 d4 bb 10 4d 27 be 82 d6 14 bd 8a 06 9a 3d
       -0.006496585 -0.16337991 -0.036337383 0.075207785
000200 1a 79 3c be 50 29 43 bd fb 3e a0 bd ac 39 40 be
       -0.18405572 -0.04764682 -0.078245126 -0.18772
000210 75 cf 33 3e c2 5d 30 be 47 ad 1b be 39 49 04 3d
       0.17559607 -0.17223266 -0.15202819 0.032296393
000220 c2 b3 a4 bd ea ea 30 be c8 8c e6 3d 95 78 07 3e
       -0.080420986 -0.17277113 0.11257321 0.13229592
000230 41 0f e3 bb f0 c9 40 3e b7 2e 9a 3d 92 cf 0e bd
       -0.0069293086 0.18827033 0.075284414 -0.034865923
000240 31 e2 32 bd cc 2f 6f 3d 2e 62 63 3b 84 c5 75 3d
       -0.043672744 0.058395192 0.003469597 0.06000282
000250 25 ef cd bd 7d 42 83 3d e9 ed 8c 3d c8 b2 cc 3d
       -0.10055379 0.06409166 0.06881315 0.09995037
000260 3b aa 34 bd 96 51 d3 bd 85 f9 20 be 0a ef df 3d
       -0.044107657 -0.10318296 -0.15720184 0.10934265
000270 d7 62 ac 3d 38 1b ab 3b 39 87 f2 bd 51 42 5c bc
       0.0841729 0.0052217506 -0.11842198 -0.013443545
000280 4a 3e 2a be b9 ec 7b be dc 91 25 3d 07 ed da bd
       -0.16625324 -0.24602021 0.040422305 -0.10689741
000290 e2 27 bb 3d be fb 44 3d 12 5f 9d bc 78 8e 90 bd
       0.091384664 0.048091643 -0.019210372 -0.07058424
0002a0 1b 6a 2e 3e 4a 3f b3 bc d2 6b 04 be b0 d3 b4 3d
       0.17032664 -0.021880765 -0.12931755 0.08829439
0002b0 34 12 47 be 12 94 0e be f4 ab 22 3e e7 82 91 bd
       -0.19440538 -0.13923672 0.15885907 -0.07105046
0002c0 87 a4 d0 bd 58 cf 06 3c ae 90 32 bd 7c db 73 bd
       -0.10187631 0.008228146 -0.04359501 -0.05953549
0002d0 a8 03 97 3d df 34 c5 3d 07 c6 f3 3d 40 eb 15 be
       0.07373744 0.09629225 0.11903005 -0.14640522
0002e0 f5 44 f3 bd 52 93 ce bd ad 4d 23 3d b8 3f 43 3d
       -0.11878387 -0.10086693 0.039869 0.04766819
0002f0 41 34 a2 3c 4e f7 42 be cc fb 11 be 6b 7a 13 3e
       0.019800307 -0.19039652 -0.14256209 0.14402167
000300 1c fd c6 bd e0 71 21 3e 34 a3 3d 3d 41 b3 76 3d
       -0.097162455 0.15766096 0.04629822 0.060229544
000310 a8 82 9f 3d da b2 2a 3c 18 cf 88 bd 19 86 b9 3d
       0.077885926 0.010418618 -0.06680125 0.0905878
000320 41 a5 9b 3e 04 74 93 be d7 1c e1 3d 01 c3 a1 3e
       0.30399516 -0.2879945 0.10991829 0.3159409
000330 d9 bf 81 bd cc e7 1b 3e b5 13 eb 3d fe b1 8c 3d
       -0.0633542 0.15225142 0.11478368 0.06869887
000340 94 93 f8 3d 79 cd c6 bc a6 60 c4 bd 52 19 a7 3d
       0.12137523 -0.024267899 -0.09588747 0.08159126
000350 89 9a 8d 3d ac 83 81 bd 65 f7 ce 3d 7e 90 8b bb
       0.06914241 -0.063239425 0.101057805 -0.004259168
000360 d7 78 9b 3d 78 b3 9e 3d b4 92 20 3e 1e 56 f4 bd
       0.07591408 0.07749075 0.15680963 -0.11930488
000370 a9 10 16 3d 52 6b 71 bc 28 09 97 3d 6d 47 41 3d
       0.036636982 -0.01473506 0.07374793 0.047187258
000380 54 99 fc 3c 25 3e db 3d 3c bf ee 3d 7e cb 36 3e
       0.030834831 0.107052125 0.11657569 0.17851064
000390 7e b4 b0 bd 93 23 ef 3c 23 e6 0f be 34 3a 99 bb
       -0.08628176 0.029191768 -0.14052634 -0.004676128
0003a0 80 07 a7 3d b7 fb e9 bb ed 4e b2 3d ac bd b6 3d
       0.081557274 -0.0071406025 0.0870646 0.08922896
0003b0 ee 50 14 bd 0e dc ae bd 85 28 9b bd c8 29 ba bd
       -0.036209993 -0.08538066 -0.07576088 -0.090900004
0003c0 a7 5f 90 bd a1 f6 ae bd 0c dd b1 bd 7c c9 9b 3b
       -0.07049494 -0.085431345 -0.086847395 0.0047542434
0003d0 09 e1 7f bd 34 1a 64 3e 48 e2 49 3d d1 cb 12 3e
       -0.06247047 0.2227562 0.049288064 0.14335562
0003e0 e0 7f 5c 3e fe 92 97 bd ae 80 d9 3d d7 81 b5 3d
       0.21533155 -0.074010834 0.10620247 0.088626556
0003f0 16 e7 82 3b ec c2 3f bc 8c c4 40 3e cd 87 5a bd
       0.0039948327 -0.011704188 0.18824977 -0.053352166

layer2.0.bias f4 [10]
000000 bc 0a 0c be 8a ba 0c bc fc b5 d8 3c 7c 0e 78 bd
       -0.1367597 -0.008589396 0.026453964 -0.06056069
000010 8d 49 5b be 78 40 a6 3d 1d c7 69 bd 79 d0 ad bb
       -0.21414776 0.08117765 -0.057074655 -0.005304393
000020 df 56 31 3e eb cb 8a bd
       0.17318295 -0.067771755

layer2.1.weight f4 [10]
000000 33 7a 72 3f 25 b8 72 3f e4 79 80 3f 56 42 83 3f
       0.9471771 0.9481223 1.0037198 1.0254619
000010 82 93 94 3f c2 73 84 3f 9d 83 80 3f 09 cd 7a 3f
       1.1607516 1.0347826 1.0040165 0.9796911
000020 60 e2 7c 3f d7 54 79 3f
       0.9878292 0.9739508

layer2.1.bias f4 [10]
000000 2a e5 1a be 1d 30 17 3c 73 e5 97 bd 5a 2b 9c bc
       -0.15126482 0.00922778 -0.07416811 -0.01906364
000010 85 06 27 3e 55 dc f7 bd 71 43 80 bd 8a 5c 19 3d
       0.16311081 -0.12102572 -0.062628634 0.037441768
000020 68 93 44 3d 60 41 00 be
       0.04799214 -0.12524939

layer2.1.running_mean f4 [10]
000000 8d d1 9f 3b d2 c1 d7 be 5b 72 c9 3f 50 73 9d 3f
       0.0048772753 -0.4214006 1.5738024 1.2300816
000010 67 88 95 bf 88 ae 67 bd a2 bd 25 3e a1 b2 1e be
       -1.1682252 -0.05656293 0.1618562 -0.15497829
000020 9b 12 6c bd 10 8d fb 3e
       -0.05763493 0.4913106

layer2.1.running_var f4 [10]
000000 a0 0a a6 3f 20 49 df 3f b7 57 18 40 0e d7 9e 3f
       1.2971992 1.7444191 2.3803537 1.240938
000010 c4 4a 08 40 e5 07 1b 40 3b 75 e5 3f 52 98 03 40
       2.1295633 2.4223568 1.7926401 2.056172
000020 1b 41 d5 3f 8d 41 10 40
       1.6660494 2.254001

layer2.3.weight f4 [10, 10, 3, 3]
000000 36 e6 82 bd d1 95 f2 bd 98 2b 33 bc 6c ba b0 3d
       -0.063915655 -0.118449815 -0.0109356865 0.08629307
000010 6d 7f 95 3d ec 88 1e bd 18 49 8d bd dc e2 79 bd
       0.07299695 -0.038704798 -0.06898707 -0.061007366
000020 fb 1c c8 3d 0d 89 98 bd 32 6a 1e be eb 11 6e 3d
       0.097711526 -0.07448015 -0.15470198 0.058122557
000030 03 73 50 bc 0c ce e1 bc af f7 86 be 21 47 cf 3d
       -0.012722733 -0.027564071 -0.26360843 0.10120989
000040 ef c4 30 3e 05 1d f5 bd 43 87 31 3d cb 4c 9e bc
       0.17262624 -0.11968426 0.043341886 -0.019323727
000050 01 09 c9 3d c2 2f da bd 2e 52 b7 3c ec 7a 74 3d
       0.098161705 -0.1065364 0.022378054 0.05968754
000060 9a 32 07 be c3 6b 6d 3d 49 cf 76 bd 7a 17 9b 3d
       -0.13202897 0.057964098 -0.060256276 0.07572837
000070 52 37 51 3e 23 bb 57 bd c7 53 f2 3c cb d9 1a 3e
       0.2043126 -0.0526687 0.029580964 0.15122144
000080 3d 13 89 3d e6 d5 98 3d 21 ce 22 3d 60 d2 2d 3e
       0.066931225 0.07462673 0.03974736 0.16974783
000090 c5 ad db 3b 1f 2b 67 3d dc 69 2c bc 9f fd 7c 3d
       0.0067040646 0.056437608 -0.010523286 0.06176531
0000a0 dd e0 c9 3d 22 30 86 3d 23 ac 1e bc 60 d4 db bd
       0.098573424 0.06552149 -0.009684595 -0.10733867
0000b0 7a 11 c6 bd a4 e8 8c be ea b2 86 bd 3e e9 61 3e
       -0.09671302 -0.2752124 -0.06577094 0.22061631
0000c0 c6 46 fc bd 26 ea 8b 3c ee d7 e8 3d 5b 89 90 bd
       -0.123181865 0.017079424 0.1136931 -0.070574485
0000d0 13 44 39 be bc b7 1d be a2 aa d1 bd 08 b9 69 bd
       -0.18092375 -0.1540212 -0.10237624 -0.057061225
0000e0 eb 68 00 3e b5 e7 ac bd 1a e2 02 bd 7f d0 0b 3e
       0.12540023 -0.08442632 -0.03195391 0.13653754
0000f0 4c 21 88 bd 93 20 2e be fc 72 bb bd e7 ec 84 bd
       -0.06646976 -0.17004614 -0.09152791 -0.06490498
000100 11 74 18 3d 0b 14 aa 3d 99 3d dd bd e7 4b 4c be
       0.037220065 0.08304604 -0.108027644 -0.1995083
000110 78 20 43 be 3d e3 05 3e 80 d4 9c 3d ce 4c ca 3d
       -0.19055355 0.13074966 0.07657719 0.098779306
000120 62 d1 27 bd 4c a6 0d 3c 0f fb 19 3d aa ce a5 bc
       -0.040971167 0.008645605 0.037592944 -0.020240147
000130 eb 49 06 3d f6 fa 79 3e 2f 4a ab 3c cc f9 b8 bd
       0.032785337 0.2441214 0.020909397 -0.0903202
000140 bf 44 f7 bd 24 41 94 3d 4f 74 35 bb fe 19 12 bd
       -0.12073659 0.07238987 -0.0027687734 -0.03566932
000150 42 8a dd 3d 0c a4 04 bd b3 14 ed bc 7c 6f f8 bb
       0.10817386 -0.03238301 -0.028940534 -0.0075816493
000160 9c ee 16 bd ff 55 a0 bd 56 ae 57 3d 76 50 e5 bd
       -0.03684865 -0.078289025 0.052656494 -0.11196987
000170 ad bc d9 bd 1b 56 f3 bd 3a 1f 1b be 98 81 05 be
       -0.1063169 -0.11881658 -0.1514863 -0.13037717
000180 e0 b8 4c bd 58 77 8a be f5 70 b3 bd 4c ac c0 3c
       -0.049980998 -0.27044177 -0.08761779 0.023519658
000190 dc cc 90 3c 97 0d b1 bd f2 00 00 3e 8d 84 e9 3a
       0.01767581 -0.0864517 0.1250036 0.0017815992
0001a0 56 90 02 3d 87 c2 98 3c 13 39 ac bd 69 0d 04 bc
       0.03187593 0.018647445 -0.084093235 -0.008059838
0001b0 3b 3e 29 bd e9 5d 0e 3d e6 2e 34 3e 59 bd 42 bc
       -0.041319113 0.03475753 0.17596015 -0.011885964
0001c0 73 a7 9a bd 8d c0 e9 3d 0b a4 b0 3c f5 6a de 3c
       -0.0755147 0.11413679 0.021562597 0.02715061
0001d0 b7 88 92 3d 44 20 fc bd ac a5 0d bd 7b f9 f9 3d
       0.071549825 -0.12310842 -0.034581825 0.12205788
0001e0 83 5c 50 bd 6b 36 04 be 75 c1 0c 3e 07 7d d4 3c
       -0.050869476 -0.12911384 0.13745673 0.025938524
0001f0 26 aa 75 bd 1a fb f8 3d ab ad f5 bd fc e1 d9 3d
       -0.05997672 0.12157269 -0.11996015 0.10638806
000200 c0 16 00 3e 38 f9 69 bd 6b c5 89 be e6 48 b2 bc
       0.12508678 -0.05712244 -0.2690843 -0.021763276
000210 06 aa 2f bd a3 df a4 be 19 ac f2 bd ab eb 26 bd
       -0.042886756 -0.3220187 -0.11849231 -0.040752094
000220 c5 42 62 bd 08 50 ab bd 21 3f c8 bc ab 47 2c bd
       -0.055239458 -0.08364874 -0.024444165 -0.042060535
000230 e5 a6 f8 bc 91 cb 1e be de eb 1f be 12 03 13 be
       -0.030353019 -0.15507342 -0.1561732 -0.1435664
000240 21 92 05 be 17 72 d3 bd 44 8d 77 3d d3 7f 85 bd
       -0.13044025 -0.10324495 0.060437456 -0.06518521
000250 9a d3 0c 3d 04 c7 a8 bd ec dd a1 3d f9 c4 02 3d
       0.034381486 -0.08241084 0.07903656 0.03192613
000260 38 84 37 bd 64 40 ac 3d 84 96 35 3d d0 9e 25 3d
       -0.044803828 0.08410719 0.044332996 0.04043466
000270 1a 43 1a 3e cf 5a 53 3e c9 71 dd 3d 99 10 ac 3b
       0.1506466 0.2064011 0.108127184 0.005251002
000280 30 a1 27 3d 8f 79 7a 3e 9c 34 17 3d ca 9b f7 bd
       0.040925205 0.24460433 0.036915407 -0.12090261
000290 47 e2 89 bd 45 cb fa 3d 98 ee 65 bd 01 5f 05 bd
       -0.06732612 0.12245802 -0.056135744 -0.032561306
0002a0 1e f7 9b 3d 02 6c d2 bc 9b b0 c6 3d 1a 85 2f be
       0.07615493 -0.025686268 0.097016536 -0.17140618
0002b0 a7 6e bd bc 3c e5 0d 3e c8 b9 03 be 38 ff 6b bd
       -0.023124052 0.13856977 -0.12863839 -0.057616442
0002c0 80 11 70 3c a8 2f d7 3d 6e 0f 96 bc 6c 84 f3 bd
       0.01465261 0.105071366 -0.018317904 -0.11890492
0002d0 2a 47 76 3c f5 c0 99 bd 45 38 1f bd 89 e2 af bd
       0.015031615 -0.07507507 -0.038872022 -0.0858813
0002e0 f8 a7 d6 bd aa 00 22 be e2 4a de 3d 03 df 9a bc
       -0.10481256 -0.15820566 0.108541265 -0.018905168
0002f0 d9 23 bc bd a2 f0 07 be c5 d2 0a 3c 68 96 4e 3d
       -0.09186525 -0.13275388 0.008473103 0.050436407
000300 8a 90 ab 3b 5d 8d 10 3d 24 c9 13 3d 78 e2 a1 3d
       0.0052357363 0.035291065 0.036080495 0.079045236
000310 e0 0b a5 3d 47 32 08 bd ae a3 c3 bc d9 c4 cc bc
       0.080589056 -0.033251073 -0.02388176 -0.024996208
000320 07 6c 4a 3c 72 01 a6 3d d3 0e cb 3d f6 93 8d 3d
       0.012354857 0.081057444 0.09914937 0.06912987
000330 7b b3 04 3e 5c 24 4a 3d 61 a7 fe 3d 9c 9f 71 3d
       0.12959091 0.04935108 0.12434269 0.058990106
000340 10 e8 0e 3e a5 56 20 3e 8e 0c 14 3e 05 6c 19 3e
       0.13955712 0.15658052 0.14457914 0.14982612
000350 30 96 93 3d b6 fc 3b 3e 69 b0 a6 3d 25 67 cc 3d
       0.0720638 0.1835812 0.08139116 0.09980611
000360 1f 02 bb bd db 32 45 be 3e 67 38 be b9 76 f6 bd
       -0.09131264 -0.19257681 -0.18008134 -0.12034363
000370 47 be 76 3d 36 8f 27 3d 8b e9 1f 3e a7 89 12 3e
       0.060240056 0.04090806 0.15616433 0.14310323
000380 b6 27 ac 3e 94 43 52 3e 07 99 88 3d 73 4a 32 be
       0.33624047 0.20533592 0.06669813 -0.17411213
000390 17 79 3f 3d b7 f3 9e bb fa 4a 28 bd 1a d2 25 be
       0.04674634 -0.0048508304 -0.04108713 -0.16193429
0003a0 6f d2 91 3c 6b 80 0b be 61 91 0b 3e 36 02 30 3e
       0.017800538 -0.13623206 0.13629676 0.17188343
0003b0 c6 d3 64 3e 06 4d 16 3d 61 e9 67 3d 50 ec 8e 3d
       0.2234641 0.03669455 0.05661905 0.06978667
0003c0 0c 5b 28 3d 0d ca 0b ba b1 45 04 3e 6a 8f ae 3d
       0.041102454 -0.0005332537 0.1291721 0.08523448
0003d0 0f ed bd 3d 37 d5 5b bd 2e da 26 be dd 96 3f 3d
       0.09273731 -0.053670134 -0.16294166 0.046774734
0003e0 21 14 87 bd 07 dc 21 bd ea 38 0d 3d 08 cf 70 bc
       -0.06595636 -0.039516475 0.034478106 -0.014697798
0003f0 34 f2 9d bd dd d3 0e bd 84 17 3d 3d 94 15 31 be
       -0.07712212 -0.034870017 0.046165004 -0.17293388

layer2.3.bias f4 [10]
000000 85 8d 62 bd bd 5f 16 bd 07 47 b9 3d 65 6f 5a 3d
       -0.055310745 -0.036712397 0.090467505 0.05332889
000010 36 aa be bb 6a d0 17 bd 94 1c ba bd 6f a1 98 bd
       -0.0058186306 -0.037063994 -0.09087482 -0.07452666
000020 87 5e f8 bc 8f 3d 17 bb
       -0.030318512 -0.0023077463

layer2.4.weight f4 [10]
000000 9a f3 83 3f 13 5c 74 3f 06 d2 69 3f f0 7e 90 3f
       1.0308716 0.95452994 0.91336095 1.1288738
000010 bd 96 8f 3f 83 2a 80 3f bf 03 81 3f 01 d7 6d 3f
       1.1217877 1.0012974 1.0079268 0.92906195
000020 48 84 84 3f 9e 30 7b 3f
       1.0352869 0.9812106

layer2.4.bias f4 [10]
000000 27 74 47 be b2 fd 87 3d 90 61 1a be a4 70 95 bd
       -0.19477902 0.066401854 -0.1507628 -0.07296875
000010 7e 32 74 bd 46 b4 dc bd d8 e5 74 be 14 3a 20 be
       -0.059618466 -0.10776572 -0.23915803 -0.15647155
000020 37 3d 0e bd 6b 65 8e be
       -0.034726348 -0.2781175

layer2.4.running_mean f4 [10]
000000 2f 50 66 be 88 16 29 bf 2e b4 25 3f 06 60 34 bf
       -0.22491525 -0.66050005 0.6472806 -0.7045902
000010 10 64 ef be a7 58 6f bf a3 d1 14 be 26 0d 99 3e
       -0.4675603 -0.9349465 -0.14533095 0.29892844
000020 42 54 c4 bd 05 ac 03 bd
       -0.095863834 -0.032146472

layer2.4.running_var f4 [10]
000000 cc 1e 22 3f 85 32 12 3f 7a 50 49 3f e2 15 20 3f
       0.6332824 0.57108337 0.7863842 0.6253339
000010 2e 5b 5a 3f dc a6 ec 3e 3f 6a 4f 3f 13 ae 37 3f
       0.8529538 0.46221054 0.81021494 0.7174999
000020 22 c2 19 3f 33 a4 23 3f
       0.6006185 0.63922423

layer3.0.weight f4 [10, 10, 3, 3]
000000 50 21 a1 bc 05 1a 51 be 2b 3e 03 bd 67 c9 35 3d
       -0.019669205 -0.20420082 -0.03204171 0.044381525
000010 fa b8 12 be 6b fb a0 3d 9b 27 4d 3e 1f 73 f7 3d
       -0.14328375 0.07860454 0.2003464 0.120825045
000020 35 d1 2d bb d1 ed a1 3d e1 34 62 3d d7 4c 3d 3d
       -0.0026522402 0.07906688 0.05522621 0.04621586
000030 5d f5 5b bd 5b 60 c3 3d 02 09 58 3e 67 d0 60 bd
       -0.053700794 0.09539863 0.21097186 -0.054886248
000040 c6 1b d3 bd a1 1c 11 be 57 cd 2d bd 19 04 9e 3d
       -0.10308032 -0.14171077 -0.042432155 0.07715625
000050 3f 04 59 be 1d 9a 43 3d bb 11 0e be 08 fc b3 bd
       -0.21193026 0.047754396 -0.13873951 -0.087883055
000060 e5 22 0d bc 36 fd 0f 3d ca e6 86 ba 7d 4a c0 3d
       -0.008614277 0.03515359 -0.0010292169 0.093892075
000070 1c 94 08 3d d3 4b 5f 3b 12 f7 2c bd 62 e6 20 be
       0.033344373 0.0034072294 -0.042227812 -0.15712884
000080 e9 c5 0d be d7 12 db 3d f8 82 6a bc c3 fa be 3c
       -0.13845028 0.10696953 -0.014313452 0.023312932
000090 96 82 35 3e 3f 28 f1 3c b0 67 3f 3e ce aa f0 bd
       0.17725596 0.029438136 0.18691897 -0.117513284
0000a0 6d 61 ea bd 33 32 3b bc e5 a4 ee 3d cd 7e 20 3d
       -0.11444364 -0.011425543 0.11652545 0.039183427
0000b0 f3 97 82 bc 0c 5d 49 be 4e 5b 2d 3c 9d 87 34 3d
       -0.015941596 -0.19664401 0.010580851 0.044074643
0000c0 9f 4d 35 bd 27 9f 80 3c b2 c8 65 be ad 4b 45 be
       -0.04426348 0.01570089 -0.2243984 -0.1926715
0000d0 ca ab 86 bd f6 a6 4a bc 79 d7 37 be ce 0f 54 bc
       -0.06575735 -0.012368908 -0.1795329 -0.012943221
0000e0 bb be b9 3d bd b0 af bd 90 cb 9a bc 55 c0 0d bd
       0.09069582 -0.08578632 -0.018895894 -0.03460725
0000f0 40 35 a0 bc 62 25 db 3d 44 6c 03 3b 2c ed 9d 3d
       -0.019556642 0.107004896 0.0020053545 0.077112526
000100 16 1c bd 3b a5 22 88 3d 5c 20 26 3e 79 ba 62 3e
       0.0057711704 0.06647233 0.16223282 0.22141446
000110 b5 df 41 3e fa 60 87 bc a2 e2 bf bd be 8f a3 bd
       0.18932994 -0.016525734 -0.09369399 -0.07986401
000120 4a b7 cc bd 1f 5b b7 3d 88 ab 81 bd db ce 90 bd
       -0.09995897 0.08952927 -0.06331545 -0.070707045
000130 4b 46 48 bd df 7f 4e 3d f2 d7 2e 3d 6c 2c 20 3e
       -0.04889516 0.050414916 0.04268641 0.15641946
000140 29 cd 34 3d 54 2f 8d 3d 85 96 5a 3d 5c e7 fa 3c
       0.04414097 0.06893793 0.053366203 0.030627899
000150 fa 16 16 3d ec 65 8b 3d 72 9b a1 bc 76 90 90 bc
       0.036643006 0.068065494 -0.019727442 -0.01764701
000160 52 a2 63 3e da 61 3b 3e aa 6e f9 3d c0 b2 3e 3e
       0.22229889 0.18299046 0.121793106 0.18622875
000170 4c 20 2d 3e e1 ae 31 bd 29 c8 49 bd 4d c5 ff 3b
       0.16906852 -0.04337967 -0.049263153 0.0078055025
000180 6b e8 73 3c 69 92 e2 3d 9c 23 8d 3e a5 91 00 3e
       0.014886956 0.11063082 0.2756623 0.12555559
000190 f8 9d bf bd 59 38 0d 3d 9f 5c 52 3d b3 0e b2 3d
       -0.09356302 0.034477565 0.05135786 0.0869421
0001a0 c4 3a a4 bc f0 57 63 3d 00 2c 6a bc af 32 15 bd
       -0.020047553 0.055503786 -0.014292717 -0.03642529
0001b0 30 26 9a bd 00 9c 33 bc f6 d7 1a be f7 35 e0 bc
       -0.07526815 -0.010962486 -0.15121445 -0.027369482
0001c0 eb d6 c7 bd 75 b5 a0 3d 96 f1 7d 3d 4d a6 e7 3c
       -0.09757789 0.0784711 0.061997972 0.02827754
0001d0 78 33 a1 bd 6d 54 69 3d 0c 8c 0f 3d 19 08 96 3e
       -0.07871145 0.05696528 0.03504567 0.29303053
0001e0 62 0f f6 3e 47 f2 e8 3d 57 84 1b 3d da c1 d0 3d
       0.4805861 0.11374336 0.037968006 0.10193224
0001f0 b4 10 e3 bc 27 f7 aa 3d 19 91 44 bd bd 5d c2 bd
       -0.027717926 0.08347922 -0.04798994 -0.094905354
000200 72 5c 2e be 2c ae ed bd a5 74 34 bc 0d 1d 57 bc
       -0.17027453 -0.11605486 -0.011014138 -0.013129485
000210 f9 8a 27 3e 82 4d a0 3e 5a dd a0 bd cf 92 99 bd
       0.16361608 0.31309134 -0.078547195 -0.07498705
000220 7a bb 25 be c3 38 2a bd 3a 2f 09 bd 8c c0 0e be
       -0.16184798 -0.04155804 -0.033492304 -0.13940638
000230 f7 6f ca 3d ab ab 07 3c 01 e8 05 be f8 6e da 3d
       0.09884637 0.008280675 -0.13076784 0.10665697
000240 66 98 4a 3e 79 af c0 bc 04 53 bc bd f2 ac 30 3d
       0.19784698 -0.023521172 -0.091955215 0.043133684
000250 eb e7 0e 3e e4 fb dd 3d 76 42 f1 3b 87 03 bd 3c
       0.13955657 0.1083906 0.007362659 0.023072971
000260 9c 8c 2a bd 51 0c 04 3e f6 4b d9 bd c3 44 bb 3d
       -0.041638 0.12895323 -0.106101915 0.09143975
000270 33 b7 5f 3b bd 73 ed bd 9b eb 66 bd 3f 40 06 be
       0.0034136295 -0.11594341 -0.056377035 -0.13110445
000280 97 65 f4 bc 75 f9 ea bc 90 60 37 3e 37 98 fe 3c
       -0.029833598 -0.028683404 0.1790793 0.031078441
000290 fc eb d8 3d 42 03 bb 3c 08 5a f0 bd d0 5c 1a bd
       0.105918854 0.022828702 -0.11735922 -0.03768617
0002a0 6b a8 10 be aa e4 30 3d 79 20 7c 3d 45 76 7c 3d
       -0.14126746 0.04318682 0.061554406 0.061636228
0002b0 a6 5b 24 3c b2 01 be bd 39 ae d0 3d fe ab 67 bd
       0.010031616 -0.09277667 0.1018948 -0.05656051
0002c0 c9 1d 58 3c 9b 6f c2 3d fb 0e df bd 06 ef 27 3c
       0.013190695 0.09493943 -0.10891529 0.010249859
0002d0 02 67 1d be f8 97 db 3c d7 aa 4f 3e e2 5c ea bb
       -0.15371326 0.026805863 0.20280014 -0.007152186
0002e0 26 f0 dc bd 25 c7 65 bd b3 e7 91 bd 2f d2 6f bd
       -0.10787992 -0.056098122 -0.07124271 -0.058550056
0002f0 f3 fd a5 3c 25 59 03 3d 07 c6 cf bb dc 56 f8 3d
       0.020262694 0.032067437 -0.0063407454 0.12125942
000300 d6 59 09 bd 87 69 7d bd d8 37 e2 bc d4 7c a4 3d
       -0.03353294 -0.061868217 -0.027614519 0.080316216
000310 ab 61 9b 3d 7d 62 b7 bc 3c d7 0a be 41 0f 12 3d
       0.07586988 -0.02238583 -0.13558668 0.03565908
000320 1f 1f 15 3e 12 bf c1 3c 75 e2 30 3e eb 6c 45 3d
       0.14562653 0.02365068 0.17273887 0.048199575
000330 3a 55 8f 3d 26 ea 18 bb 28 40 f3 bc 01 b9 5c be
       0.069986776 -0.0023332923 -0.029693678 -0.21554948
000340 56 38 21 bc a8 17 a0 bd d4 7a 85 bd 76 bc 11 bb
       -0.009840092 -0.07817012 -0.06517568 -0.0022237576
000350 a6 44 2e 3c fb 81 cb 3d 99 3b 65 3c 6a 25 16 be
       0.010636484 0.09936901 0.01399126 -0.1466271
000360 e6 5f 0e 3e 25 d4 41 3e cc a3 94 3e 1f ba 00 3d
       0.1390377 0.18928583 0.29031217 0.0314275
000370 1a 4a ba 3e 68 8f 30 3e dc fe 84 bd d9 63 cb bd
       0.3638466 0.17242205 -0.06493923 -0.09931154
000380 49 ce 6c bd 01 23 07 bd 80 15 98 bd 5a 58 21 bd
       -0.057813916 -0.032992367 -0.07425976 -0.0393909
000390 57 57 c1 3c 6e 56 a2 bc b8 ad 0d be 6e 4a 3b 3e
       0.023601217 -0.019816604 -0.138358 0.18290111
0003a0 90 a6 fe 3c 0c 10 ad bc 5e 26 bf 3d 20 ad f4 bc
       0.031085283 -0.021125816 0.0933349 -0.029867709
0003b0 7a 17 e9 3b c0 19 94 bd 64 1a c3 3d 5b 17 74 3e
       0.0071133943 -0.07231474 0.09526518 0.23837034
0003c0 79 8e bf bc 2f 94 24 3e df 7b 50 bd 9b 39 80 bd
       -0.023383366 0.16072153 -0.050899383 -0.06260987
0003d0 de 12 82 bd f6 69 ac bd bc 7b 20 bd bf 7b ed bd
       -0.06351255 -0.08418648 -0.039180502 -0.11595868
0003e0 5e a0 b6 3d 9d d8 29 3c 7a e8 ad bd a5 07 5f 3d
       0.08917306 0.010366586 -0.08491607 0.05445065
0003f0 41 ac 8d 3d 1f d8 8e 3e f1 50 99 3d c2 77 90 bd
       0.069176205 0.27899262 0.074861415 -0.07054092

layer3.0.bias f4 [10]
000000 3b 01 02 3e 5f 8e ac bd 8a 64 2a bd 1a 4c 9f bc
       0.12695782 -0.08425593 -0.041599788 -0.019445468
000010 22 e7 2f bb e6 32 d3 3b 9f 48 91 3d da e5 59 bd
       -0.0026840647 0.0064452766 0.070939295 -0.05319772
000020 0f 44 31 3e 9c cd 02 bd
       0.17311119 -0.031934366

layer3.1.weight f4 [10]
000000 44 07 e1 3f dd 9c d8 3f 6d 4a f3 3f 14 05 e5 3f
       1.7580342 1.6922871 1.9007088 1.7892175
000010 08 88 e0 3f 03 d7 f3 3f 9b c5 d8 3f fa 25 c8 3f
       1.7541513 1.9049991 1.6935304 1.563659
000020 24 98 e6 3f 6e d0 dc 3f
       1.801518 1.7251108

layer3.1.bias f4 [10]
000000 90 ce cf 3d b0 71 7f 3e 68 48 e0 3e 1f f4 74 3e
       0.101468205 0.24945712 0.43805242 0.2392125
000010 8d f5 38 3e 72 0e b0 3e 7b aa 83 3e b1 fd 67 3e
       0.1806242 0.3438602 0.25716004 0.2265537
000020 25 d9 2c 3e b8 21 82 3e
       0.16879709 0.2541635

layer3.1.running_mean f4 [10]
000000 87 ac 3a 3e 31 9d 39 3f 0d 5b 3b 3f 97 df 0a be
       0.18229876 0.7250548 0.7318581 -0.13561855
000010 e5 23 da 3e bc da bb 3e 8c d1 ea bd 20 0d 9d 3e
       0.4260551 0.3669032 -0.11465749 0.30674076
000020 8a 31 b2 3e 0f 97 3f 3f
       0.3480342 0.7483987

layer3.1.running_var f4 [10]
000000 af 10 53 3f 69 e1 3c 3f 96 31 54 3f bc 85 52 3f
       0.8244733 0.7378145 0.8288816 0.8223531
000010 81 e1 34 3f 98 54 7d 3f 5c 9b 76 3f 0b 73 27 3f
       0.7065659 0.98957205 0.9633081 0.65409917
000020 22 7f 48 3f e4 d4 3c 3f
       0.7831899 0.73762345

classifier.1.weight f4 [10, 90]
000000 24 3e 84 be f8 32 48 be 73 05 ed 3d 6f c6 f1 be
       -0.2582866 -0.19550693 0.11573305 -0.47221705
000010 c0 83 2e be 44 fc e3 3d d0 63 f3 3d 7b 47 69 3e
       -0.17042446 0.111321 0.11884272 0.22781174
000020 3f d1 c7 bd 67 ea 05 be 78 a7 d7 3d 32 ea a9 be
       -0.097567074 -0.13077699 0.10529989 -0.3318649
000030 ac a4 cb be c8 55 e7 3c 1f 9a 33 bd b1 17 c8 be
       -0.39774072 0.028239146 -0.043848153 -0.39080575
000040 ea 89 02 bf 23 b7 02 bf dc 03 a7 bb 99 fe 81 3e
       -0.5099169 -0.51060694 -0.0050968956 0.25389555
000050 f0 18 ed bd 26 33 5e be d6 91 c0 bd 77 d6 0b bf
       -0.11577022 -0.21699199 -0.09402816 -0.5462412
000060 6e ac dc bd d7 d6 02 3e 5d f7 92 3e ac ad 86 be
       -0.10775076 0.12777267 0.28704348 -0.26304376
000070 cb ca 80 3e 06 fb c6 bd 9a f8 9d be 58 66 5a 3e
       0.2515472 -0.09715848 -0.3085373 0.21328104
000080 86 87 17 3e 87 26 10 3e f1 69 c6 be eb 32 5a 3e
       0.14797792 0.14077197 -0.38752702 0.21308486
000090 7a bd 5a 3d a7 33 2a be 14 de 74 be c4 2e 6d be
       0.053403355 -0.16621266 -0.23912841 -0.23162371
0000a0 13 fc 11 3d 4c 36 07 be 36 ca 43 3e 13 e6 6c bd
       0.035640787 -0.13204306 0.19120106 -0.057836603
0000b0 8f 3c 11 be 06 cd 35 be c8 5b 51 bd 03 f4 68 3e
       -0.14183258 -0.17753991 -0.05111292 0.22749333
0000c0 6f a8 8e bd 5a 8c 20 be 5e f2 d8 be 73 b0 fe 3c
       -0.0696572 -0.1567854 -0.4237241 0.031089997
0000d0 6b 48 7a 3e a1 29 e2 be 69 0b 6a bd 1f 12 93 bd
       0.24441688 -0.44172385 -0.057139788 -0.07181191
0000e0 35 a3 1e 3e 0d e9 f0 be cc df 8e be ee 3c 98 3d
       0.15491946 -0.47052804 -0.27905118 0.074334964
0000f0 fa 4b 80 3d b5 20 2e bd d4 79 81 3e 62 6f 93 bd
       0.062644914 -0.04251166 0.2528826 -0.07198979
000100 9c 25 7b 3e ba 01 81 be 92 0f a3 bd 15 87 39 be
       0.24526066 -0.2519663 -0.07961954 -0.18117936
000110 f0 7e b3 3e 36 b2 4c 3e 50 fb a9 3c 5e ba 61 3e
       0.35057783 0.19989857 0.020749718 0.2204375
000120 d1 43 25 bd de c5 35 be 0b 9c 62 ba fe d4 0b 3e
       -0.040347878 -0.17751262 -0.0008644468 0.13655469
000130 40 00 e6 3d c7 3d a7 3d ea f9 96 be b6 34 16 bc
       0.112305164 0.0816608 -0.29487544 -0.009167841
000140 91 91 1f be 3a 27 be 3c 28 0e a2 be 43 10 9a be
       -0.15582873 0.023212064 -0.31651425 -0.30090532
000150 3c 80 45 be e2 ff 65 3e 44 de af bd 5d aa 17 be
       -0.19287199 0.22460893 -0.08587316 -0.14811082
000160 f4 6c bc 3d 15 d8 da 3e a1 5d 2e 3e 60 dc 11 bd
       0.09200469 0.42742983 0.17027904 -0.035610557
000170 a4 ac e7 bc ea 05 47 be 89 1a 1a be 9e 80 ea bd
       -0.028280564 -0.1943585 -0.15049185 -0.11450313
000180 30 e5 71 be cb 8d 44 bd 89 a8 53 3d de 78 27 3e
       -0.23622584 -0.047986787 0.0516744 0.16354701
000190 14 2f 0a be fb 14 3c 3e d6 62 96 3e 39 bb 38 bd
       -0.13494521 0.18367378 0.2937228 -0.045100424
0001a0 83 1d 8a 3d de 29 a2 3e ec ca 1d be 11 3a 63 be
       0.0674391 0.31672567 -0.1540944 -0.2219012
0001b0 28 b5 74 bd 4b 2a 7a bd ca ec 47 3e 92 75 0c 3e
       -0.059743077 -0.06107549 0.19523922 0.13716725
0001c0 75 8c 26 be cb c2 26 3d 9e 6c 89 3d 7d cc f3 3d
       -0.16264518 0.040713113 0.0671017 0.119042374
0001d0 fa f2 0a 3e ad 7d 51 be 48 be c9 be d8 ef 92 be
       0.1356925 -0.20458098 -0.39402986 -0.2869861
0001e0 06 08 ff bd 77 a6 52 be 17 a3 74 be 01 78 da bd
       -0.12452702 -0.20571314 -0.23890339 -0.1066742
0001f0 e3 d7 72 bd 8c 1a 0d be 54 e0 8a be 52 83 93 be
       -0.059287917 -0.13779658 -0.27124274 -0.28811127
000200 fb 37 f3 bd 13 23 5e bd 5f 67 89 be cb 73 45 3d
       -0.11875912 -0.054232668 -0.26836678 0.048206132
000210 5b 88 48 be 68 c6 4a 3e d0 9e dd bd 41 32 11 3e
       -0.19583265 0.19802248 -0.10821307 0.14179327
000220 b9 d7 32 bd cb c8 ac bc 74 91 a8 be 75 34 f4 be
       -0.04366276 -0.02109184 -0.32923472 -0.47696272
000230 ee 19 99 3e ea 98 83 3c 62 1a 92 bd 8f bc ed 3e
       0.29902595 0.016064126 -0.07133938 0.4643292
000240 ef 8b 69 3e 24 47 a6 3d f5 cb 5b bd 1f 5b 75 3e
       0.22807287 0.08119038 -0.053661305 0.23960541
000250 ac 05 b8 3e d2 f2 75 bc b3 b7 61 3e a7 e4 91 3e
       0.35941827 -0.015011506 0.22042732 0.2849476
000260 11 17 6a 3e 2a 5a 55 3e c0 75 8c 3e 12 0c ca 3e
       0.22860362 0.20835176 0.27433586 0.39462334
000270 fa a4 a2 be 48 c7 17 3e d5 ab 60 be 76 f1 47 be
       -0.31766492 0.14822114 -0.21940549 -0.19525704
000280 28 83 5f 3e 5b c1 4f be 39 f0 dc 3c 98 5e c7 be
       0.21827376 -0.20288603 0.026970016 -0.38939357
000290 13 46 9a be 67 19 e8 be d7 4d 09 bf 0d 47 07 bf
       -0.30131587 -0.4533188 -0.536344 -0.5284279
0002a0 5f 2f 2f be 8b 18 f7 be 32 39 7b be 03 88 43 3e
       -0.17107914 -0.48260912 -0.24533537 0.19094853
0002b0 45 d1 00 3e 39 6b 4f 3e 47 5e 51 3e fe f8 8a be
       0.1257983 0.20255746 0.2044612 -0.2714309
0002c0 c0 5d 53 3e 91 d0 1d be c2 78 cf 3c c6 ce c3 bd
       0.20641232 -0.15411593 0.025326136 -0.09560923
0002d0 af 47 28 3d 71 f9 17 3e b9 d4 a4 3d 14 51 a3 bd
       0.041083988 0.14841248 0.08048386 -0.07974449
0002e0 e1 87 cc bd 86 2f 93 be b6 c3 9b 3d 9e c8 36 3e
       -0.09986854 -0.28747195 0.07605688 0.17849967
0002f0 4f 31 05 3e 19 80 31 bd 06 ed 01 3d 53 eb 61 3d
       0.13007091 -0.043335054 0.031720184 0.055156063
000300 01 bd 95 be 8f 99 b8 bd 53 7b 02 3e 3b 9d 63 be
       -0.2924576 -0.09013664 0.12742357 -0.22227947
000310 f3 2c 6b be ed a4 ce be 2b 35 27 3d a7 aa a4 bd
       -0.22966366 -0.40360203 0.04082219 -0.08040362
000320 f4 5c f5 be ed ec ab 3e c3 6e 1e 3e e1 92 84 be
       -0.4792248 0.33579198 0.1547194 -0.2589331
000330 6f 50 de 3d 69 a7 8c 3d 8a 64 4b 3e ad 30 45 3e
       0.10855185 0.068678685 0.19862571 0.1925685
000340 96 32 fe 3d 98 5b 2a be 6f 78 fb 3c 6c 71 19 3d
       0.12411992 -0.16636503 0.030697076 0.037461683
000350 b6 29 8b 3c 8e 09 29 be 92 51 95 3e 2e 89 80 3e
       0.016987663 -0.16507551 0.29163796 0.2510466
000360 34 44 ed 3d d6 ef 3f 3e a2 d2 0f be d8 52 44 bb
       0.11585274 0.18743834 -0.14045194 -0.0029956605
000370 1e 23 d0 bd 2a fd 34 be 0a 4c b5 bd 7e 91 fe 3d
       -0.10162948 -0.176747 -0.08852394 0.12430094
000380 8a 25 3e 3e 9d c7 10 3d 33 ff 99 bd 9f b1 8e bd
       0.18569008 0.035346616 -0.075193785 -0.06967472
000390 f8 96 88 be 6f 53 87 be 52 15 5f 3e 28 3f c1 3c
       -0.2667768 -0.26430842 0.21785477 0.023589686
0003a0 8e 95 01 3e 53 6e 80 3e 16 38 80 be 12 05 2b be
       0.12654707 0.2508417 -0.2504279 -0.16701153
0003b0 73 c7 85 bd 81 0f 81 3e 1f b6 a2 3e 88 7b cd 3e
       -0.065321825 0.2520714 0.31779572 0.4013331
0003c0 81 aa 26 3e a9 0a 5d be 39 72 42 3e 15 ca 1c be
       0.1627598 -0.21586098 0.18988885 -0.15311463
0003d0 ca b2 24 be 71 fe ca be bd 85 36 be f7 9e 8f be
       -0.16083828 -0.39647248 -0.17824455 -0.28050968
0003e0 45 33 07 be fa 39 5a be 83 fc b2 be 48 02 04 3e
       -0.13203152 -0.21311179 -0.34958276 0.12891495
0003f0 14 09 ed 3d b2 fc a9 3b 06 e0 ab 3d 05 48 9f 3d
       0.11573997 0.0051875943 0.083923385 0.077774085

classifier.1.bias f4 [10]
000000 21 94 3a bc 40 24 9f 3e 48 ad 9b bc 90 ac 03 be
       -0.011387856 0.31082344 -0.019003525 -0.12858796
000010 81 52 3e 3b 0b ab 54 bd f3 ec a4 bd 57 58 db 3d
       0.0029040875 -0.05192093 -0.08053007 0.10710209
000020 ec a4 97 3d a3 6a a7 3d
       0.07404503 0.08174636

exp_avg f4 [10, 1, 3, 3]
000000 0c f3 12 3b d8 72 99 3b ef fe a9 3b e8 88 e1 3a
       0.00224227 0.00468288 0.005187861 0.0017206939
000010 6e 41 81 3b 7b 6d 55 3b 83 01 32 3b 12 0e d6 3a
       0.0039445674 0.0032566476 0.0027161546 0.0016331098
000020 19 10 0d bb 5c 09 0a b9 6f 08 1d b7 6a dc 61 3a
       -0.0021524488 -0.00013164192 -9.359893e-06 0.0008615913
000030 ba 7e 43 3a 4d 96 95 ba a9 ae 93 bb fe 44 be 3a
       0.00074575434 -0.0011412591 -0.004506905 0.0014516411
000040 42 a0 07 bb 6a d3 f1 bb b0 86 8b 3a 93 16 c3 ba
       -0.0020694886 -0.007379939 0.0010644998 -0.0014884047
000050 bf 4a 44 ba 79 31 b5 b9 ff 72 8a ba e5 f5 df b9
       -0.00074879447 -0.0003455987 -0.0010562836 -0.0004271708
000060 dc c3 b5 ba 4f 4f 14 ba 5b 6c 0e b9 38 97 35 bb
       -0.0013867575 -0.000565757 -0.00013582541 -0.0027708542
000070 9d 4e 73 3b d0 39 0e 3b c4 a5 6f 3a 42 80 d8 3b
       0.0037125715 0.002170194 0.00091418275 0.0066070864
000080 e0 a1 2f 3b ef e9 2e 3b 02 9d 9f 3b 28 bb f1 3a
       0.0026799366 0.0026689728 0.0048710117 0.0018442618
000090 43 d5 68 3a 6c 67 e0 3a d4 4b f1 3a b9 69 84 3a
       0.0008881876 0.0017120666 0.0018409439 0.0010102309
0000a0 aa 03 fe 3a d2 ee e5 3a 53 fd 8d 3a e4 07 f2 38
       0.0019379754 0.0017542487 0.0010832943 0.00011540929
0000b0 f5 c5 e2 ba 9d 9f c8 3b 6c 71 61 3b 14 43 21 3c
       -0.0017301427 0.006122543 0.003439988 0.009842653
0000c0 09 3b ef 3b 8f de 81 3b ef 94 2c 3c a8 b7 ec 3b
       0.0073007387 0.0039632986 0.010533555 0.007224042
0000d0 af 93 20 3c be af a6 3c 7a 42 c0 3b 58 99 77 3b
       0.0098008355 0.020347472 0.0058672996 0.003778061
0000e0 f0 28 b7 b9 4a 7d 08 3c e2 95 50 3b 50 d9 2d bb
       -0.0003493498 0.0083306525 0.0031827618 -0.0026527233
0000f0 90 a0 cc 3b 41 00 a6 3b e0 44 68 39 31 df 2a bc
       0.0062447265 0.0050659482 0.00022150902 -0.01042919
000100 84 3c 46 bc da 39 ff bb d0 07 2b bc d1 25 85 bb
       -0.012099389 -0.007788879 -0.010438874 -0.004063346
000110 16 16 3d bb 48 15 06 bc e1 f1 9e ba 30 92 a8 bb
       -0.0028852276 -0.008183785 -0.0012126529 -0.00514438
000120 a1 e5 d7 3b d8 26 9c 3b 0f 83 5a 3b b3 23 3b 3b
       0.006588653 0.0047653727 0.0033342277 0.0028555214
000130 3d 3c 26 3b 80 9d 8e 3b 9f 1b dd 3b 50 db 1a 3c
       0.0025365495 0.0043522716 0.0067476775 0.009451702
000140 c0 24 49 3c 72 a8 e7 3a 49 7f 68 3b 98 ce 57 3b
       0.012276828 0.0017674102 0.0035476258 0.0032929536
000150 9e 96 17 bb dc 36 49 ba 10 fe 0a bb 0d 8c 58 bb
       -0.0023130546 -0.0007675716 -0.0021208562 -0.003304246
000160 62 59 08 bb f7 c6 01 bb
       -0.002080523 -0.001980243

exp_avg_sq f4 [10, 1, 3, 3]
000000 58 21 e9 38 37 37 eb 38 7c a1 0f 39 1d 7e a3 38
       0.000111165165 0.00011215958 0.000136977 7.795936e-05
000010 cb ec 9d 38 a6 55 07 39 da ec dc 38 55 21 b8 38
       7.5304495e-05 0.0001290651 0.000105345345 8.780012e-05
000020 45 20 f6 38 6f 73 4d 3a ea 28 0d 3a 1b 46 01 3a
       0.00011736205 0.00078373303 0.000538482 0.0004931406
000030 96 31 23 3a 8e 8d 71 39 9c b6 fd 39 ea 73 15 3a
       0.00062253454 0.00023036284 0.00048391975 0.00057011715
000040 cd 59 ba 39 ed e8 31 3a 4c da 4e 38 d4 13 93 39
       0.0003554359 0.0006786723 4.9317532e-05 0.00028052798
000050 d3 92 74 3a 8b ef a1 37 8a 63 67 38 db 34 11 3a
       0.000932974 1.9304242e-05 5.5167395e-05 0.0005539187
000060 5f af 2f 39 f7 39 f8 37 23 35 e0 39 62 3c a1 3a
       0.00016754631 2.9590896e-05 0.000427642 0.0012301321
000070 de f2 82 3a 21 a4 8f 3a a9 0d 9a 3a 6a 84 80 3a
       0.0009990593 0.0010958948 0.0011753339 0.0009805087
000080 09 5e 6b 3a 18 b1 5f 3a 29 4b 49 3a a9 b6 25 3a
       0.0008978551 0.0008533164 0.0007678741 0.0006321469
000090 97 4f 73 38 6a f5 80 38 be 74 99 38 8e d7 61 38
       5.800984e-05 6.1492276e-05 7.3173534e-05 5.384493e-05
0000a0 e8 42 26 38 74 60 4a 38 dc 05 17 38 88 d3 46 37
       3.9639795e-05 4.8250382e-05 3.6006662e-05 1.1850971e-05
0000b0 3c bf e7 37 c8 78 42 3b 7d b2 1f 3b fe 80 27 3b
       2.7626396e-05 0.0029674042 0.0024367862 0.0025559063
0000c0 de 8b b8 3a c6 47 25 3a 1f 90 bb 3a 25 b6 17 3a
       0.001407977 0.00063049456 0.0014309919 0.00057873345
0000d0 1f ea 3c 3a c6 67 58 3b 9d 68 8c 3a 5a 55 60 3a
       0.00072065176 0.0033020838 0.001071233 0.000855764
0000e0 10 7d 9d 3a 57 47 bb 3a fe 4e b1 3a c8 70 f1 3a
       0.0012015421 0.0014288229 0.001352757 0.0018420452
0000f0 22 32 e0 3a 44 66 d6 3a e3 ee 06 3b 24 ed 1f 3b
       0.0017104784 0.0016357382 0.0020589165 0.0024402821
000100 2e ba 03 3b d1 52 a4 3a 31 3a 16 3b 4f 7f 04 3b
       0.0020099985 0.0012536888 0.0022922868 0.0020217483
000110 f7 5b b3 3a a6 97 f2 3a 59 c9 ca 3a c8 58 e8 3a
       0.0013684024 0.001850833 0.0015471383 0.0017726654
000120 cf 87 12 3a 17 0b ff 38 b6 2a f3 38 cf fe e5 39
       0.0005589695 0.00012161413 0.000115950985 0.0004386813
000130 fe c6 4c 39 65 a5 d0 39 2a 1d 33 3a c6 18 1f 3a
       0.00019529086 0.0003979608 0.0006832654 0.000606906
000140 c3 f0 59 3a a2 8c b2 3a 20 b6 c8 3a 0c 1c a6 3a
       0.00083137694 0.0013622234 0.0015313067 0.0012673154
000150 e3 2a a4 3a cb 76 bc 3a d2 ff 87 3a 21 bf 89 3a
       0.0012524988 0.0014378665 0.0010375923 0.0010509231
000160 e6 f6 aa 3a a1 59 ab 3a
       0.0013043552 0.0013072976

exp_avg f4 [10]
000000 3d dc 3a b4 2e 69 1c 36 cb 86 ee 30 a0 4a 83 b5
       -1.7402722e-07 2.3307034e-06 1.735509e-09 -9.781979e-07
000010 09 83 40 b3 d8 21 be b3 c5 ba 12 b4 b4 da 64 b6
       -4.482266e-08 -8.8537206e-08 -1.3665256e-07 -3.410195e-06
000020 dd 95 30 33 20 da fc 35
       4.1114493e-08 1.8838946e-06
